Prediction_Using_DNN/bvmodel.pt (torch, 764185 bytes, 164 tensors)

weight f4 [80, 80]
000000 f8 23 5d bd e4 1f 89 3d 94 2f e2 3c 4e a7 31 bd
       -0.05398938 0.06695536 0.027610578 -0.043372445
000010 87 53 83 3d 73 f1 80 bd 6a b2 f3 3c 2f fc cb bc
       0.06412416 -0.06296053 0.02974816 -0.024900524
000020 7b b1 d3 3d 3d 17 dc bd 83 e0 8a bd f0 7f 04 3d
       0.10336586 -0.1074662 -0.067811035 0.032348573
000030 c1 7f 52 bd b2 a3 68 bc 75 41 b8 bb ea cb ff 3c
       -0.051391367 -0.014199184 -0.0056230375 0.031225163
000040 56 ee bd bb ec cb bc 3d d7 cb 5a 3d 1e ba c8 3d
       -0.005796234 0.092185825 0.053417053 0.09801124
000050 22 50 d8 bd 8a 51 b8 3d b0 34 80 3c da e5 36 3d
       -0.10562159 0.08999927 0.015650123 0.044652797
000060 5e 3c 95 3d 49 86 3e 3d 95 1b 38 bd 63 24 dd 3d
       0.07286905 0.046514783 -0.04494818 0.10797956
000070 d9 ca 47 3c 59 05 4d 3d 93 03 9f 3d ea ef 6a bd
       0.012194359 0.050053928 0.077643536 -0.057357706
000080 cf eb 7f 3d aa 67 1b 3b 5d 3f 4e 3c 8e 0b a5 bd
       0.062480744 0.0023712912 0.012588349 -0.080588445
000090 69 e9 01 bc 4b 85 ae 3d aa 91 49 3d ec a2 1f bd
       -0.0079291845 0.08521517 0.04921118 -0.038973734
0000a0 c8 1c 48 3d 49 41 50 3d d5 8c c7 bd 14 60 e7 bd
       0.048855573 0.05084351 -0.097436585 -0.11297622
0000b0 32 8f 17 3d 97 7e d7 3d 09 3d d8 3d 68 80 bc 3d
       0.037001796 0.10522192 0.105585165 0.09204179
0000c0 41 78 50 bc 58 91 c1 3c 11 fa 46 bd b4 cd 20 3d
       -0.012723983 0.023628876 -0.048578326 0.039258674
0000d0 d2 5a 84 bd f8 e3 db 3c 63 93 dd 3d 61 0d 3b 3d
       -0.06462635 0.026842102 0.108191274 0.045667056
0000e0 96 47 d7 bc c1 a3 a9 bd f2 e5 e4 bb 21 7d b2 3c
       -0.026279252 -0.08283187 -0.0069854194 0.021788182
0000f0 95 93 10 3d c3 50 95 bd 51 df 8d bd 11 d8 bb bd
       0.035296995 -0.07290795 -0.0692736 -0.09172071
000100 8c 99 4e bd d2 97 4f bd 14 fb d9 3b 25 3e b9 bd
       -0.050439402 -0.050681897 0.0066522453 -0.09045056
000110 50 4c a0 bc 48 0e a0 bd 9d af 2f 3d 80 df 8d 3d
       -0.019567639 -0.07815224 0.042892087 0.06927395
000120 e0 50 8a 3d d7 25 36 bc ab 2d 2b bd 44 f8 9c 3c
       0.06753707 -0.01111742 -0.0417916 0.019161351
000130 93 10 1c bc f2 09 91 bd 83 6f 60 bd 8f 1e cc bd
       -0.009525436 -0.07081975 -0.054793846 -0.09966766
000140 53 bc ca 3d ed 9e 6a bc 0d d1 8f bd d5 0a a7 bd
       0.09899201 -0.014320117 -0.07022295 -0.08156363
000150 f2 89 35 3d d2 12 34 3d 4e d0 c6 3d 9c 64 d8 3d
       0.044321008 0.04396326 0.097077 0.10566065
000160 9a f2 cb bd af 37 4a bd 27 fe d7 3b 34 a3 f2 bd
       -0.09958382 -0.04936951 0.0065915766 -0.11847535
000170 ee 57 26 3d 54 26 8d bd 89 17 bb bd 3d cb 3f bd
       0.0406112 -0.06892076 -0.09135348 -0.046824683
000180 49 83 07 3d e7 8c 2f 3d 65 59 a4 bc b0 56 d6 bc
       0.033084188 0.042858984 -0.020062158 -0.026164383
000190 70 e9 13 3d 98 f6 bf 3d 9b 3c d4 3d ae b3 51 bd
       0.036111295 0.09373206 0.10363122 -0.051196747
0001a0 1e 6d ab 3d f1 af 94 3d d3 8e 94 bd 67 32 7e bc
       0.08370422 0.07260121 -0.07253804 -0.015514947
0001b0 13 46 a6 bd 87 17 a9 3d bf d7 ed 3c ba cb 66 bd
       -0.08118834 0.082564406 0.02903354 -0.056346633
0001c0 bf 19 45 bd 7a 39 3e 3d 71 3f c5 3d 74 b1 74 3c
       -0.048120257 0.046441533 0.09631241 0.014934886
0001d0 81 84 c9 bd 00 63 b2 bd 18 bc ac 3c bc fe 9e bd
       -0.09839726 -0.08710289 0.021085784 -0.077634305
0001e0 bb 99 2d 3d c7 79 f6 3c c6 c1 a3 bd 0d bd b0 3c
       0.042382937 0.030087365 -0.07995944 0.021574521
0001f0 30 10 40 3d 2f 39 43 bd 45 7a d4 3c fe 6d 3c 3c
       0.046890438 -0.047661956 0.025937209 0.011500834
000200 fb 6a f5 bd 49 c5 c6 bd 69 26 95 3d ac 7f 1e bd
       -0.119832955 -0.09705598 0.07282717 -0.038695976
000210 00 63 82 3c 75 6b cc 3d 7a ec da bd f8 1b 90 3d
       0.015916348 0.09981433 -0.106896356 0.070365846
000220 14 e6 a9 3c df af ce 3d ad f7 90 3c aa 29 4a bc
       0.020739593 0.100921385 0.017696226 -0.012339035
000230 65 29 3f 3b 6d 46 d8 bc bd f9 56 bd 36 44 3d bd
       0.002916896 -0.02640077 -0.052484263 -0.04620763
000240 40 7d e9 3c 01 a4 35 3d eb 35 37 3c 0f 6a 87 3d
       0.028502107 0.04434586 0.011182289 0.06612026
000250 d6 40 71 bd db d7 2b 3d 03 c0 af bd 0a 50 69 bd
       -0.058899723 0.041953903 -0.08581545 -0.056961097
000260 c3 f0 c2 3d cc f5 d9 bd 54 8a af 3d de b2 88 3d
       0.09518578 -0.10642585 0.08571306 0.06674741
000270 f4 c2 15 3d 4d 01 9c bd 55 f4 96 3d 00 22 85 3d
       0.036562875 -0.076174356 0.073708214 0.065006256
000280 dc 0e 00 be e9 91 64 3b b3 2d c4 3d a3 5a d1 bd
       -0.12505668 0.0034877008 0.09579029 -0.10222366
000290 44 23 6b bd 6a 0a 89 3d 20 3f d2 3d 66 4a e7 bb
       -0.05740668 0.066914394 0.102659464 -0.0070584295
0002a0 20 21 b8 bd 0e 62 d4 3d bb 0e b2 3d 89 b1 e3 3c
       -0.08990693 0.10370265 0.08694216 0.027794616
0002b0 d7 7d 82 bc 0b b0 27 3c e7 33 97 3c b5 5a 53 3d
       -0.015929146 0.010234843 0.018457366 0.051600177
0002c0 93 61 72 bd 05 a4 57 3d f7 74 c0 bc f2 63 74 3d
       -0.059175085 0.052646656 -0.023493273 0.059665628
0002d0 3e 14 0d 3d ab 21 97 3d b8 87 b5 3d 21 5f 9d bb
       0.034443133 0.073794685 0.08863777 -0.0048026
0002e0 fe d4 1f 3d 5a 71 a6 bd 9c 92 2f 3d 2a 72 90 3c
       0.039021485 -0.08127089 0.042864427 0.017632563
0002f0 41 0c 51 bd 00 82 6b bd d7 6f 7b 3d 3c 96 69 3d
       -0.051037077 -0.057497025 0.061385956 0.05702804
000300 e4 b2 a7 bc 45 92 03 be f9 61 c8 bd 1b ec d1 bd
       -0.020471044 -0.12848766 -0.09784312 -0.10250112
000310 a8 24 d3 bd 63 4b 7b 3d 90 95 66 3d 13 7a a4 bd
       -0.10309726 0.06135119 0.056294978 -0.08031096
000320 28 7a e5 bc 04 a4 d1 bd e5 3b 8a 3c a8 8d 81 bc
       -0.02801235 -0.102363616 0.016874263 -0.015814617
000330 9d e1 85 3d 6e be 47 bd 86 c7 cd bd 9f 4e d9 3b
       0.06537173 -0.048765592 -0.10047822 0.006631687
000340 e6 88 5d bd 20 ff ae 3d 6f e4 f2 3b 06 30 c8 bb
       -0.054085635 0.08544755 0.0074124853 -0.0061092405
000350 fd 5b 5a 3d 43 be 8c 3d a7 68 16 3d 2e 77 00 bd
       0.053310383 0.06872227 0.036720898 -0.03136366
000360 02 90 8d 3d 44 11 60 bd 7d d5 c0 3d 17 bc 9f 3d
       0.06912233 -0.054703966 0.0941572 0.07799547
000370 76 df ce bd d0 92 04 3d 50 f1 1f bd fc 1b bd 3c
       -0.101012155 0.032366574 -0.039048493 0.023084633
000380 be 46 34 3d 40 2e 15 bd c1 f5 c4 bd 3b 28 e7 bd
       0.044012778 -0.03642106 -0.09617186 -0.1128697
000390 bc 65 bc bd 70 09 5a 3c d3 50 00 bc 3c a4 1d 3d
       -0.09199092 0.013307914 -0.00783177 0.038486704
0003a0 bf fa a4 bd 89 c8 9e 3d 7b bb 96 ba d7 78 8b bc
       -0.080556385 0.07753093 -0.0011499965 -0.017025394
0003b0 16 71 da bd d2 0a 8c bb 97 30 c9 bd a2 a2 a9 3d
       -0.10666101 -0.004273751 -0.09823721 0.08282973
0003c0 29 e2 7b bd 33 66 54 38 64 bb bd 3d 3f e4 78 3d
       -0.06149498 5.063992e-05 0.092642576 0.060764547
0003d0 ac 3f 96 bd 60 45 c7 3d 48 d0 1b bc bc 8e b8 3d
       -0.07336363 0.09730029 -0.009510107 0.090115994
0003e0 4e 56 42 bd f8 9a 5a bc 3e 2b 75 bd 18 ad 95 bc
       -0.047445588 -0.0133426115 -0.059855692 -0.018271014
0003f0 ef 04 09 bd a4 d8 ce bd 80 1f b3 bd e4 f5 bf 3d
       -0.03345197 -0.10099915 -0.087462425 0.09373072

bias f4 [80]
000000 4f d7 b6 bd b7 e1 3b 3d 66 02 f6 b9 5f fe 3d bd
       -0.089277856 0.045869555 -0.00046922563 -0.046385165
000010 50 74 19 bd b3 aa 19 bd a8 b3 f2 bb 3a 41 a2 3d
       -0.03746444 -0.037516307 -0.0074066706 0.07922597
000020 e0 e7 d1 3d 78 e3 90 bd d0 ba ae 3d dd 63 e4 3d
       0.10249305 -0.07074636 0.085317254 0.1115186
000030 87 30 3f bc cc 67 9a bd 94 8f a5 3c 04 69 92 bb
       -0.011669285 -0.07539329 0.020210065 -0.0044680852
000040 74 90 e5 3c c6 b4 c3 3d 29 23 ca 3d 8c cb 8c 3d
       0.028022982 0.09555964 0.098699875 0.06874761
000050 c0 8a de 3d a0 e3 07 3c cb 70 3e bd d3 23 3a bc
       0.10866308 0.008294016 -0.046494287 -0.01136108
000060 74 e9 09 3d 38 6a b9 bc e5 3e 2b bd c7 8b 54 bb
       0.033669904 -0.022633657 -0.041808028 -0.0032431947
000070 50 96 e8 3c cc 36 b4 3d 5c 1e cf bb 18 71 72 3d
       0.028391987 0.08799514 -0.006320758 0.059189886
000080 6d 47 88 3a 08 24 39 3c d0 19 33 3d a6 19 d3 3d
       0.0010397263 0.011300094 0.04372579 0.103076264
000090 eb 3e cf 3d 49 83 f9 3c 7a 35 8b 3d 9c bb 17 3d
       0.101194225 0.03045811 0.06797309 0.037044153
0000a0 ae 93 56 3b 2a de b9 bb 09 fe be bc 51 29 b9 39
       0.0032741833 -0.005672236 -0.023314493 0.00035316733
0000b0 cf 11 9c bd 44 0a f2 bc ce 07 5e bd bb fe f4 bc
       -0.07620584 -0.02954591 -0.054206662 -0.029906621
0000c0 df 93 a2 bd db 6d 8f 3d ec 70 01 3d 4e 08 79 bd
       -0.079383604 0.07003375 0.03160183 -0.060798936
0000d0 d9 07 b8 bc 40 df 13 3b 11 8e e5 3c e8 a5 da bc
       -0.02246468 0.0022563487 0.028021844 -0.026690438
0000e0 a3 fd 83 bd 7c e3 85 bd 82 e6 6c bd f3 be f9 3d
       -0.06444862 -0.0653753 -0.057837017 0.12194624
0000f0 89 c4 df bc 4b 08 d8 3d f5 0a 92 bd 80 2f 7b bc
       -0.027315395 0.10548457 -0.07130996 -0.015331149
000100 33 0b 6a bd c3 8f bd bd 4f 1b 65 3c a7 be b8 3c
       -0.057139587 -0.09255936 0.013983562 0.022551848
000110 2d e2 37 bd bf 74 99 bb 91 b6 d3 bd 20 3d a2 bd
       -0.044893432 -0.0046831067 -0.10337556 -0.07921815
000120 97 c5 b2 bd b8 8a c7 3c 5c ec 9d 3d 00 b1 28 bc
       -0.087290935 0.024358138 0.077110976 -0.010296106
000130 e7 b8 82 3d 0c 70 41 bd 9c 52 b3 3d 00 52 47 ba
       0.063829236 -0.047225997 0.08755991 -0.00076034665

weight f4 [20, 80]
000000 7e 5e 7c bd af 3a a5 3d b7 a0 d2 3d 9b c4 ae 3d
       -0.061613552 0.08067834 0.1028456 0.08533593
000010 94 7b d7 bd 5d d4 90 bd 68 cb 86 3d e5 f9 9d 3d
       -0.105216175 -0.07071755 0.065817654 0.07713679
000020 c1 dc 83 3d 76 a7 d6 bd 6d 8f d0 3d 22 6a c6 3d
       0.0643859 -0.104811594 0.10183606 0.09688212
000030 cb d2 85 bd bb 29 1e 3d 51 96 dd bc 28 61 d0 bc
       -0.06534346 0.038614016 -0.027049216 -0.025436953
000040 f3 bc bd bd b6 66 a8 bc b8 44 02 3d be 42 01 3d
       -0.09264555 -0.020556789 0.031803817 0.03155779
000050 ce 55 6a 3d 40 ae 74 bb ad a1 ae 3c f5 85 7c 3d
       0.057210736 -0.0037335306 0.021317327 0.06165119
000060 bc 93 98 bd ff cb b4 3d b5 9e 25 3d 4e 33 8e bc
       -0.07450053 0.08827972 0.040434558 -0.017358448
000070 50 93 83 bc 4d d9 9e 3c c8 96 ce bc 88 7b 1b bc
       -0.016061455 0.019390726 -0.025218382 -0.009489901
000080 ce ea 4a 3d 56 40 92 3d a3 d8 b1 bd d2 74 80 3c
       0.049540333 0.07141177 -0.08683898 0.015680704
000090 55 f2 d4 bc eb 01 f1 bc 1a b4 bf 3d d4 6c d2 3d
       -0.02599446 -0.02941986 0.093605235 0.102746636
0000a0 fb eb 73 3d 09 de 55 bd b4 06 b2 3c 8c 8d 46 bd
       0.05955122 -0.052213702 0.021731712 -0.048474833
0000b0 47 42 3e 3c a2 2f 89 bb 95 7a 17 3d 1e 9c 54 bd
       0.011612481 -0.0041865865 0.036982138 -0.051906697
0000c0 1b d9 d5 bd a1 9f ae bc 89 56 05 3d 4c 5f 6c bd
       -0.104418 -0.021316351 0.03255323 -0.05770807
0000d0 f1 67 bd bb 00 49 cf 3c 18 42 bc 3d e3 6d 28 3c
       -0.005780213 0.025303364 0.09192294 0.010280105
0000e0 dc bf 52 3d 50 85 a6 3b 04 ab 94 bc 9f 29 88 3d
       0.051452503 0.00508181 -0.018147953 0.066485636
0000f0 a1 55 4a 3c b2 1a 04 3d d8 e1 f0 3d 9c c0 38 bd
       0.012349517 0.03225202 0.11761826 -0.04510556
000100 98 f2 4e 3d 6e 70 f5 3d 12 4e 2a bd 8d fa 8a bd
       0.050524324 0.11984335 -0.04157836 -0.0678607
000110 09 15 8c bc c2 01 4b bb 3a 63 90 3c fc 73 45 bd
       -0.017099874 -0.003097639 0.01762544 -0.048206314
000120 e8 46 0a bc 68 29 30 bd cf 5d ec bc 91 a9 ae bd
       -0.008439757 -0.043008238 -0.028853325 -0.08528436
000130 ec 25 a4 3c 4a 96 44 bd 7c 4e a6 3c 1a 1d 51 bd
       0.020037614 -0.04799489 0.020301096 -0.051053144
000140 99 cc b9 b9 d1 61 7b 3d 65 dc d7 bd 00 ca b9 b9
       -0.00035438387 0.061372582 -0.10540084 -0.0003543645
000150 29 37 b6 3d 06 48 13 3c a7 f2 cf bd 9f 35 6c bd
       0.0889724 0.00898934 -0.10153704 -0.057668325
000160 ea ae b0 3d c6 fe c7 bc 56 8f a6 bd 70 46 6b bd
       0.08627112 -0.024413478 -0.08132808 -0.05744022
000170 4c 87 1a bd 88 17 05 3d ae 1f 8f bd ed bd ef bc
       -0.037726685 0.032493144 -0.06988464 -0.029265368
000180 fe 75 e3 3d be 82 29 bd 8a 1d a7 bd 4e 71 b6 bc
       0.111064896 -0.04138445 -0.08159931 -0.022270825
000190 08 f8 c8 bd 5d e1 4c bd 79 20 93 bd 61 e7 74 bd
       -0.09812933 -0.05001961 -0.07183928 -0.059790973
0001a0 93 5e 26 bd a6 4a b2 3d 7e f6 ff 3b 87 6c 4a 3c
       -0.040617537 0.08705644 0.0078113666 0.0123549765
0001b0 fa 2c 21 bd f7 13 32 3d da 77 ac 3d f0 a8 3b 3d
       -0.039349534 0.04347607 0.08421297 0.04581541
0001c0 e9 18 da bd 72 1b b0 3d 80 74 2e ba ba 3b c1 3d
       -0.106492825 0.08598985 -0.0006654933 0.0943522
0001d0 f2 c6 ad bd 60 86 bd bb 27 94 aa bd 5d 73 4c bd
       -0.084852114 -0.005783841 -0.08329039 -0.049914706
0001e0 7d 9e bb 3d 9e 6e b5 3d af 68 8d bd 64 a6 6c 3c
       0.091610886 0.08858989 -0.069047324 0.0144439675
0001f0 52 5e e4 bd 83 2d 62 bd 75 9c 07 3d 9c 8b d2 bd
       -0.11150803 -0.055219185 0.033108193 -0.102805346
000200 e1 ef 97 bd 45 11 44 bd 48 0c 17 3d 3d 41 31 3d
       -0.074188 -0.047868032 0.036876947 0.043275107
000210 52 e7 f7 3a 00 30 d0 bd 11 36 3b 3c 3e 48 97 3d
       0.0018913543 -0.10165405 0.011426465 0.07386826
000220 11 ba d1 bd 56 d8 6a bd a6 d9 c4 3d 95 79 f5 bd
       -0.102405675 -0.05733522 0.09611826 -0.119860806
000230 e4 92 45 bc cf 10 40 3d d3 8f 55 bc 08 bb 9e 3c
       -0.012058947 0.04689103 -0.013034779 0.019376293
000240 09 ad bd 3c aa 0a c5 3d ec e8 ad bc b7 44 0f 3d
       0.023153799 0.09621175 -0.02122923 0.03497764
000250 79 5d b0 bc c0 13 1e 3d 15 84 6d bd 64 f1 ac 3d
       -0.021528946 0.038593054 -0.05798729 0.08444479
000260 73 f7 91 bd 0e 27 2a bd 11 09 c1 bd 08 45 cc 3d
       -0.07127275 -0.04154115 -0.094255574 0.09974104
000270 6c 9b d0 bd 05 87 f9 3c e0 1e d2 3d 96 1c b9 3d
       -0.10185894 0.03045989 0.10259795 0.090386555
000280 73 6d e2 bd 30 8d 37 3d 30 e1 2b bd e8 30 3e 3d
       -0.11056032 0.04481238 -0.041962802 0.04643336
000290 80 84 e1 3a 76 02 bd bd 38 3c bf bc 88 f0 12 bd
       0.0017205626 -0.09228985 -0.023344144 -0.03587392
0002a0 2c 56 69 3d 34 2b 2c bd 34 a0 ed bc 3a 0f b8 bd
       0.056966946 -0.04203339 -0.029007055 -0.08987279
0002b0 78 f2 20 bc 28 94 c0 bc 42 45 b3 3d bf 87 87 bd
       -0.009823434 -0.023508146 0.08753444 -0.066176884
0002c0 00 19 c1 bb e0 38 f4 3c b4 b1 87 3d f2 3e 2f bd
       -0.005892873 0.029812276 0.06625691 -0.04278464
0002d0 41 eb 7f bd 5a 65 01 bd c8 35 2f 3c 40 ac 85 3c
       -0.062480215 -0.031590797 0.010693975 0.016317487
0002e0 d8 20 06 bc 84 8d 36 3d 2c 2e c6 bc a0 91 c7 bd
       -0.0081865415 0.044568554 -0.024191938 -0.09744573
0002f0 66 21 b3 3d 20 3b 01 3b e4 12 8c bd 38 69 ca bd
       0.087466046 0.001971908 -0.068395406 -0.0988335
000300 e4 aa c3 bc 74 79 c4 3d 74 ed e2 3d b8 e9 52 3c
       -0.023885198 0.09593478 0.11080447 0.012873106
000310 40 82 64 bb ec 44 9d 3d f4 0b e4 bc ae ee 0e bd
       -0.0034867674 0.076791614 -0.027837731 -0.03489559
000320 48 3c 26 3d 5e 9c b6 bd 4e 75 83 3d 48 48 15 3d
       0.040584832 -0.089165434 0.064188585 0.036445886
000330 2d e9 6b bd 10 cf 8b bc 60 8f 1b bd a0 98 4a 3d
       -0.05759542 -0.017066509 -0.03797853 0.04946196
000340 da b5 b8 bd 2b d8 ae bd 4a 92 bc 3d ec ee 3f bd
       -0.090190604 -0.085373245 0.0920759 -0.046858713
000350 54 ac c0 3d 1a 4d b4 3d 38 47 66 bd 6c 36 5b 3d
       0.09407869 0.088037685 -0.056220263 0.053518698
000360 14 a5 f8 bc 54 fe 6d 3d c4 cf 99 bd 12 ab cb 3d
       -0.030352153 0.058103874 -0.07510331 0.099447384
000370 fa 9b b6 3d 20 65 16 bb 78 82 17 bd 00 b1 02 ba
       0.08916469 -0.0022948459 -0.03698966 -0.00049854815
000380 10 5a c2 3b 48 2e 6e 3d 90 48 bd 3c b4 aa 8f bc
       0.0059311464 0.058149606 0.02310589 -0.017537452
000390 f6 3d 52 bd 20 93 d2 3b 88 25 1b bd 08 d8 35 bd
       -0.05132862 0.00642623 -0.03787759 -0.044395477
0003a0 f7 4c aa bd e4 4c 51 3d 27 65 7c bd 28 fe 2b 3d
       -0.08315461 0.05109872 -0.061619904 0.04199043
0003b0 a4 73 85 bd fa b0 dd 3d 23 42 4a bd cb c1 80 bd
       -0.06516197 0.10824771 -0.04937948 -0.06286963
0003c0 1d 8f 24 3d 4c d8 01 bc bb b0 ab bd 3a 67 02 bd
       0.040175546 -0.007925104 -0.08383318 -0.031836726
0003d0 99 e9 4c bb 4b e1 38 3d 0c f8 a3 bd c6 31 ac 3d
       -0.0031267165 0.04513673 -0.080062956 0.08407931
0003e0 dc 97 9e 3c e7 45 b9 bd c3 b6 3f 3c 65 ab b0 3d
       0.019359522 -0.09046536 0.011701289 0.08626441
0003f0 c6 f9 82 bd 5a f0 b6 3c f8 ca dc 3c b1 10 55 3d
       -0.06395297 0.022331405 0.026952252 0.05201787

bias f4 [20]
000000 c9 27 37 bc 24 a3 cd bd 24 17 95 bc 79 18 c7 3d
       -0.011178919 -0.10040882 -0.01819951 0.09721465
000010 ee 3a 65 3d 3f d2 e0 3d d5 7a a6 3c ba 21 1a 3d
       0.055964403 0.10977601 0.020322243 0.03762982
000020 d4 a9 55 bd a7 57 c9 3b d3 e1 8c bd 79 73 63 bd
       -0.052163914 0.006144482 -0.0687901 -0.055530045
000030 61 0b ba bc 1e 99 97 bd cc d1 87 3c 50 f7 87 3b
       -0.022710504 -0.07402252 0.016579531 0.004149355
000040 29 ac 5e 3d bc ca 25 bd aa 42 be 3d 44 00 c5 bc
       0.054363403 -0.040476546 0.09290059 -0.024047978

weight f4 [20, 80]
000000 70 71 ef 3c 6c f1 28 3d 44 6a a9 bd 08 14 ff 3c
       0.029228896 0.041245863 -0.08272222 0.031137481
000010 14 5f 67 bd d6 4c 90 bd 10 26 db 3c 38 3e 13 bd
       -0.056487158 -0.07045905 0.026751548 -0.03594801
000020 8c da a5 bc 1b 3e dc bd b4 60 bb 3d 24 b7 65 3d
       -0.020245813 -0.10754033 0.09149304 0.05608286
000030 d2 8b 81 3d a0 58 91 bc 00 ca 47 b9 9c db 89 3d
       0.06325497 -0.017742455 -0.0001905337 0.0673134
000040 7c 65 35 3d 26 64 8e 3d 28 a4 88 3d 58 34 5c bc
       0.044286236 0.069526955 0.06671935 -0.013440214
000050 54 14 df bd b4 89 b5 bc f2 d9 b4 bd 68 da 01 3d
       -0.10892549 -0.022160389 -0.08830632 0.03170243
000060 f8 d5 59 3d da 0b cf 3d ad d5 a0 bd f4 e8 c3 3d
       0.053182572 0.101096824 -0.078532554 0.09565917
000070 76 0a 69 bd 54 03 93 bd 9c ac e9 bc 40 06 f2 bc
       -0.056894742 -0.07178369 -0.02852469 -0.029543996
000080 68 6f cd 3d b1 c0 9f bd 44 4a 56 3d 78 57 b8 3c
       0.10031015 -0.07800425 0.05231692 0.022502646
000090 92 d8 a8 bd 20 2c 3d bb 90 2c 79 3d da cf 8b 3d
       -0.082444325 -0.0028865412 0.060833514 0.06826754
0000a0 22 67 cb 3d c8 ae ff 3c 4d a5 7b bd 48 9f 14 3d
       0.099317804 0.031211272 -0.06143694 0.036284715
0000b0 04 21 82 3d b6 e7 40 bd 18 e9 fe bc 4c 07 f2 bc
       0.063539535 -0.047095977 -0.031117007 -0.029544495
0000c0 b8 27 1f bc b2 5d d4 bd 20 6c 73 3d 1e fc 81 bd
       -0.0097140595 -0.103694335 0.059429288 -0.06346916
0000d0 40 ca 5e 3b a0 36 2d 3b 68 eb 00 3d 88 c1 32 3c
       0.0033995062 0.0026430264 0.0314745 0.010910399
0000e0 fe 5f 8c bd 0c 72 63 3d 00 7f 0c bd 19 33 bd bd
       -0.068542466 0.055528685 -0.034300804 -0.09238262
0000f0 84 2e 8f bd a0 a1 cc bc 00 58 69 b8 18 3e e0 3c
       -0.06991294 -0.024979413 -5.5633485e-05 0.027373359
000100 f8 db 87 bc 48 1f 80 3c 78 a9 77 bd 46 bc 3e bd
       -0.016584381 0.015639916 -0.060464352 -0.04656627
000110 4e 4c 55 bd 00 b7 92 bd 75 79 93 bd 5a ad 32 bd
       -0.052074723 -0.07163811 -0.072009005 -0.043622352
000120 ae 07 b3 bd 18 ea 89 bc 43 31 af bd 80 8c 9d 3a
       -0.08741699 -0.016835257 -0.08554318 0.0012020022
000130 98 39 bd bc 40 a4 6d bb 82 4c dd bd 94 bf e4 bc
       -0.023098752 -0.003626123 -0.10805608 -0.027923383
000140 96 3a 95 3c 11 90 43 3c f1 94 d5 bd c0 7b 1c bd
       0.018216413 0.011936204 -0.10428799 -0.038203955
000150 09 0c 3d 3d 13 9e 1c 3d 5f d9 51 bd 64 40 b8 3d
       0.046154056 0.03823669 -0.05123269 0.089966565
000160 df f8 ec 3c 47 b5 d6 3d 1c 4d ae bd 96 a4 b7 bb
       0.028927265 0.10483795 -0.08510801 -0.005604337
000170 16 47 c0 bc 9d f4 18 3d 5a 9b a3 3b e7 8d 9b bd
       -0.023471396 0.037342656 0.0049928846 -0.07595425
000180 28 22 8d bd 4d 63 70 3c e9 17 ab 3d 42 c7 c2 3d
       -0.068912804 0.014672113 0.0835417 0.09510662
000190 1c c7 69 3d 17 6e 83 3b c5 a9 ab 3d 03 ff 24 3d
       0.05707465 0.0040109265 0.0838199 0.04028226
0001a0 d4 3b 6a 39 a1 70 6e bc 06 89 65 3a 32 a6 98 3d
       0.00022338267 -0.01455322 0.0008756075 0.07453574
0001b0 05 5b c2 3d af 99 51 3d 86 ac 62 bd ef 3e 84 bd
       0.09490017 0.051171955 -0.055340312 -0.06457316
0001c0 57 63 24 3d 7a 12 a8 bc c5 7e d9 3d cc c7 3e bd
       0.0401338 -0.020516623 0.106198825 -0.04657726
0001d0 17 f7 00 3d 8d 89 b9 bd aa c5 36 3d fb 67 be 3d
       0.031485643 -0.09059439 0.0446221 0.092971765
0001e0 75 3b 82 ba 51 16 b0 bd 54 27 75 bd 39 4e b5 3d
       -0.0009935932 -0.085980065 -0.05985196 0.088528104
0001f0 4e 92 aa bd 10 ec bd bc e1 bc b8 bd e7 d3 1f 3d
       -0.08328687 -0.023183852 -0.09020401 0.039020445
000200 83 59 1a 3c 5c fe 2c 3d 54 a4 4c 3c 69 bd 97 3d
       0.009420755 0.042234764 0.012490351 0.07409174
000210 63 07 a9 bd 2a 12 97 bd c6 aa b3 3c f0 5f 69 bd
       -0.08253362 -0.073765114 0.021932017 -0.05697626
000220 a4 2c 85 bb 34 7c cf 3d 38 50 7f 3d cd e1 c5 bd
       -0.0040641595 0.10131112 0.062332362 -0.09662209
000230 f4 33 e1 3b f8 ab b2 bd 68 c1 dd 3d 26 5c d0 3d
       0.0068726484 -0.08724207 0.10827905 0.10173826
000240 bb 24 c3 bd 9d ed c7 bd 21 d6 30 3d 8a c7 ba 3d
       -0.0952849 -0.09762118 0.04317296 0.0912009
000250 69 f9 89 3d 60 53 1d 3d af e8 d3 bc 33 8d 95 bc
       0.06737024 0.03840959 -0.025867788 -0.018255806
000260 c4 ea 85 3d 39 b5 83 3d 0e bb cc 3d f9 0c 9a 3d
       0.065389186 0.0643105 0.09996615 0.075220056
000270 a7 70 d1 bb b5 7d 0a bd f6 2d 12 bd 56 b8 64 bd
       -0.006391603 -0.03381129 -0.035688363 -0.05583986
000280 89 7f 65 bd 71 f1 32 bd 61 ab 7f bd 1e 67 86 bd
       -0.05602983 -0.043687288 -0.0624193 -0.06562637
000290 57 ba 68 3d e9 22 4c 3d db 87 03 bd 44 1f 9b 3c
       0.056818333 0.04983798 -0.032111984 0.018935807
0002a0 26 20 5c 3d 94 f3 2b 3d c7 35 6c 3d 48 03 91 3d
       0.053741597 0.04198034 0.057668474 0.07080704
0002b0 e8 d3 e8 3c 39 3e d7 3a 6c e1 47 bd fa bf 06 3c
       0.028421357 0.0016421742 -0.048798963 0.008224482
0002c0 b9 f9 7b 3b e4 39 88 3d e3 49 4b bc a6 34 b3 3d
       0.0038448407 0.06651667 -0.012407753 0.08750276
0002d0 68 04 9a bd 3a 09 97 3d f7 36 33 3b cd cd 5a bd
       -0.07520372 0.07374807 0.0027345994 -0.053418923
0002e0 a7 4c b1 3c 58 c8 98 3d 55 6a e0 bc 35 5a cf ba
       0.021642996 0.074600875 -0.027394453 -0.001581973
0002f0 67 a3 a7 3d 72 cc 4e 3c 4f 36 96 bd c3 53 82 3d
       0.081854634 0.012621986 -0.07334577 0.063636325
000300 d4 68 c5 bc 7a db cd bd 79 f1 f6 3c d9 32 d5 3d
       -0.024097838 -0.100516275 0.03014444 0.10410089
000310 19 9d 97 bc 30 c3 53 3d 1f f2 98 3d 7d 4e b5 3d
       -0.018507527 0.051699817 0.07468056 0.08852861
000320 3f 24 32 bd 16 fc 1b 3d 57 70 d6 3d 9f e4 a7 3d
       -0.0434916 0.038082205 0.10470646 0.08197903
000330 7a 31 f8 3d a6 a4 9e 3d eb 6e e1 bd 66 fc 5c bb
       0.12118812 0.07746248 -0.11007484 -0.0033719777
000340 c0 be 32 3c fc de 34 bd 5b 74 66 3c a7 15 98 bd
       0.010909736 -0.044157967 0.014065827 -0.07426005
000350 37 d9 a1 bd f9 87 b5 3c 92 ad a9 bc b6 4e 8b 3b
       -0.079027586 0.022159563 -0.020712648 0.0042513264
000360 ff b8 8d 3d 25 8d 94 bd 93 71 7e 3c 2f ed 51 bc
       0.06920051 -0.07253484 0.015530008 -0.012812897
000370 5e d9 29 bb ce 70 ff bc 65 ea c1 3c 39 6a 5f 3d
       -0.0025916914 -0.03118172 0.023671338 0.05454466
000380 2f 0e 6e bd c1 14 4a bd 64 7b 67 bd 1b ca 3e 3d
       -0.058118995 -0.0493362 -0.05651416 0.04657946
000390 3a 77 47 bd 9d 0c f1 bc 60 30 e0 bc 04 f7 ba bd
       -0.048697688 -0.02942496 -0.027366817 -0.09129146
0003a0 b3 0f 98 bd a4 e4 c4 3d 9c 65 af bd ad 1d ab 3d
       -0.074248694 0.09613922 -0.08564302 0.083552696
0003b0 58 7b 36 bd a3 c6 3a 3c 2d ab 4e bd 4c 41 15 bd
       -0.044551224 0.011399898 -0.050456215 -0.036439225
0003c0 02 5a 32 3d d3 ac 6d bd fc fa 6d 3d 0d 5b 3e 3d
       0.04354287 -0.058026146 0.058100685 0.04647355
0003d0 a5 55 8d bc 93 a9 a0 3c f1 40 8a 3d 1a a1 58 3d
       -0.017252753 0.01961211 0.06750668 0.052888013
0003e0 7e 27 be 3d e1 74 b8 bd a1 f4 b6 3c 31 b7 ac bd
       0.09284876 -0.09006668 0.022333445 -0.084333785
0003f0 d1 18 79 bb 66 74 24 bd 8d 93 81 3d 6b 1e c0 3d
       -0.0038009176 -0.04015007 0.06326971 0.09380802

bias f4 [20]
000000 08 ef 9a 3c 5c 79 19 bd 26 81 ce 3d 16 94 15 bd
       0.018912807 -0.037469253 0.10083227 -0.03651818
000010 f9 95 75 bd 70 a6 63 bc c0 df 7b 3b 91 9c a6 bd
       -0.05995748 -0.013894662 0.0038432926 -0.081353314
000020 71 ee 3b bd d1 19 28 3d a2 c1 b7 bc c0 be 95 bc
       -0.045881692 0.041040245 -0.022431199 -0.018279433
000030 e6 a3 1f 3d 44 45 ba bc 02 33 ca b9 d2 93 58 bd
       0.038974665 -0.022738107 -0.00038566446 -0.052875347
000040 a0 b1 70 bd 8d 94 9f bd dd ae b4 3d 4b 21 2a 3d
       -0.058763146 -0.07792006 0.08822415 0.041535657

weight f4 [40]
000000 4c d1 7c 3f d7 a6 7e 3f 00 00 80 3f 43 1a 80 3f
       0.9875686 0.9947333 1.0 1.0008014
000010 c8 a6 7d 3f 45 15 7b 3f 4e f2 82 3f a8 96 80 3f
       0.99082613 0.9807933 1.0230196 1.0045977
000020 50 75 7f 3f 9b 75 80 3f 8e ab 7c 3f c9 8a 7d 3f
       0.9978838 1.003589 0.9869927 0.99039894
000030 dc ae 80 3f 00 00 80 3f 85 be 7c 3f 00 00 80 3f
       1.0053363 1.0 0.9872821 1.0
000040 83 9a 7f 3f c7 06 81 3f a1 c9 80 3f b6 e1 7e 3f
       0.9984514 1.0080193 1.0061532 0.9956316
000050 00 00 80 3f 80 81 81 3f 89 8e 81 3f 4b fc 81 3f
       1.0 1.0117645 1.0121623 1.0155119
000060 00 00 80 3f 9d 84 7d 3f f4 e7 7f 3f cd 55 7d 3f
       1.0 0.99030477 0.9996331 0.98959047
000070 77 d9 7f 3f 85 3b 7e 3f 60 85 7e 3f 00 00 80 3f
       0.999412 0.9930957 0.99422264 1.0
000080 f2 ff 7e 3f 00 00 80 3f e2 c4 7f 3f 9c 20 80 3f
       0.9960929 1.0 0.99909794 1.0009952
000090 af 5c 7b 3f 44 16 7e 3f c8 92 7c 3f 36 17 82 3f
       0.981883 0.99252725 0.9866147 1.0163333

bias f4 [40]
000000 2f 59 17 3b a4 82 00 bc 35 d5 66 bb 42 79 fc bb
       0.002309393 -0.007843647 -0.0035222296 -0.0077048847
000010 97 c6 1f bb 6c de c1 3a c3 dd 9b bb 28 b7 9d 3b
       -0.0024379843 0.0014791018 -0.0047566607 0.0048130937
000020 4a 6a 26 bb d8 ca 70 3b f3 d2 a7 3b c7 d5 9c 3c
       -0.0025392943 0.0036741998 0.0051215827 0.019144906
000030 96 ba 8b bb be b3 43 3b 67 bc a1 bb 09 72 02 3c
       -0.004264186 0.0029861773 -0.0049357894 0.007961758
000040 a9 e3 ad 3a 08 6a 2a bc 64 02 c3 3b 7a 00 87 3c
       0.00132667 -0.010401256 0.0059512127 0.01647972
000050 1c 2e 54 bc d9 7a 30 3c 9d e1 fa 3a 7e 25 00 bc
       -0.012950446 0.010771477 0.0019140724 -0.007821439
000060 7a fa 1e 3c cc a3 4d 3c e3 a5 a4 3b 36 e7 d8 ba
       0.009703273 0.012551259 0.005024658 -0.0016548398
000070 da 33 cc ba 13 e8 b9 3c 4c 38 c7 3b 42 4f 02 bb
       -0.0015579418 0.02269367 0.006079709 -0.0019883667
000080 ed fb f5 bb 7a 8d 6b 3c be d1 60 bb 34 88 3b 3c
       -0.0075068385 0.014376992 -0.0034304704 0.011446048
000090 8c a4 42 3b 5e 09 ad bc 48 25 0a bc c6 42 94 3c
       0.0029700128 -0.02112263 -0.00843174 0.018098246

running_mean f4 [40]
000000 a4 88 c5 43 f0 74 3f 41 00 00 00 00 23 0d 47 3d
       395.0675 11.966049 0.0 0.048596513
000010 b0 2e e5 3d ab 35 cc 43 50 0d d0 43 04 00 00 00
       0.111905456 408.41928 416.104 6e-45
000020 04 00 00 00 33 d2 81 43 6b ce 14 3e e5 82 94 40
       6e-45 259.64218 0.14531867 4.6409783
000030 04 00 00 00 00 00 00 00 04 00 00 00 00 00 00 00
       6e-45 0.0 6e-45 0.0
000040 d4 f0 26 40 d8 25 6c 43 79 64 9f 3d 04 00 00 00
       2.608449 236.14783 0.077828355 6e-45
000050 00 00 00 00 a9 e1 3f 44 b5 ff 28 44 7c c1 49 41
       0.0 767.52594 675.9954 12.609737
000060 00 00 00 00 55 8b d1 43 04 00 00 00 20 d3 65 3f
       0.0 419.08853 6e-45 0.89775276
000070 ae b1 71 44 66 fa cf 3e 5d 7c e0 43 00 00 00 00
       966.77625 0.40620726 448.9716 0.0
000080 7f 06 c4 42 00 00 00 00 d7 e8 4e 44 ca b3 dc 43
       98.01269 0.0 827.6381 441.4046
000090 d2 d3 3f 43 04 00 00 00 84 0a 4d 44 e4 bd 7a 43
       191.82742 6e-45 820.1643 250.74176

running_var f4 [40]
000000 2a be ab 47 4e 70 80 46 04 00 00 00 c0 27 a7 40
       87932.33 16440.152 6e-45 5.2236023
000010 63 c9 9f 3f a7 30 8b 47 ea 60 05 48 04 00 00 00
       1.2483333 71265.305 136579.66 6e-45
000020 04 00 00 00 ec fa c8 45 fc 3d d2 41 af 4f 03 44
       6e-45 6431.365 26.280266 525.24506
000030 04 00 00 00 04 00 00 00 04 00 00 00 04 00 00 00
       6e-45 6e-45 6e-45 6e-45
000040 16 82 28 43 99 d2 b7 46 aa 5d 56 41 04 00 00 00
       168.50815 23529.299 13.397867 6e-45
000050 04 00 00 00 12 ac 39 48 f8 c3 77 48 bc b2 44 44
       6e-45 190128.28 253711.88 786.7927
000060 04 00 00 00 df 20 34 47 04 00 00 00 d7 c4 f1 43
       6e-45 46112.87 6e-45 483.5378
000070 4e f9 f0 48 cb 1c 12 43 8a 2d b9 46 04 00 00 00
       493514.44 146.11247 23702.77 6e-45
000080 ce 76 f9 45 04 00 00 00 b4 7b 37 49 b7 d1 1c 48
       7982.8506 6e-45 751547.25 160582.86
000090 83 3b 48 48 04 00 00 00 9f 50 cf 48 e6 e9 9f 45
       205038.05 6e-45 424580.97 5117.2373

weight f4 [40, 40]
000000 66 72 fa bd e3 80 a0 3b 56 1f 6a 3d 47 a6 b5 3d
       -0.12228851 0.004898177 0.05715879 0.088696055
000010 52 3c c9 bd 5b 28 17 be cb da c7 3d 0e be 79 bc
       -0.09825958 -0.14761488 0.09758528 -0.0152430665
000020 c6 44 80 3d 42 b7 da bd ac c6 c9 bc 4c 2f be 3d
       0.062631175 -0.10679485 -0.024630867 0.09286365
000030 d7 27 15 bc 14 1d 0c 3e 84 ea fc bd 42 ef 00 bd
       -0.009103737 0.13682967 -0.12349418 -0.031478174
000040 19 91 1a be b0 58 18 3e 59 29 c5 bb 69 eb ba 3d
       -0.15094413 0.14877582 -0.006016892 0.09126932
000050 c7 1f da 3c ce 3b 92 3d 72 f6 b9 bd 04 75 0e 3e
       0.02662648 0.07140313 -0.09080209 0.13911825
000060 09 69 6e 3d 7f 11 0f 3d 5d 2c f1 bd 28 52 7e bd
       0.058205638 0.034928795 -0.1177604 -0.06209007
000070 41 f8 f2 3c a9 2e eb 3b aa 78 bc bd 68 66 b8 3d
       0.029659392 0.007177193 -0.09202702 0.090039074
000080 1c 01 1b be d3 b0 dc bd 62 90 5c bd f7 a2 c1 bd
       -0.15137142 -0.10775914 -0.05384863 -0.09454911
000090 7b 72 f3 bd 9e d3 ab bc e5 06 b7 3d 38 68 cd bd
       -0.1188707 -0.02097493 0.08936862 -0.10029644
0000a0 e9 2f f4 bd 27 f1 d5 3d b5 50 d0 bb 04 d2 66 3c
       -0.11923201 0.10446387 -0.0063572773 0.014088158
0000b0 ff ed 0f 3e 5f 00 ad 3d dc b9 e9 3d e1 33 88 bd
       0.14055632 0.084473364 0.11412403 -0.0665052
0000c0 59 90 48 bd 95 2d 0a be 7a 0f 72 3d a0 b6 89 3d
       -0.048965786 -0.1349395 0.05909679 0.06724286
0000d0 95 dd a6 3d 63 41 d0 bd 36 2a 14 3e a0 21 d8 bd
       0.08147732 -0.101687215 0.14469227 -0.105532885
0000e0 24 b3 84 3d ba 46 a9 ba 43 12 0c 3e 99 ab ec bd
       0.06479481 -0.0012914755 0.13678841 -0.11556167
0000f0 18 4b 1f 3d 0b 34 20 be eb 85 0c 3e 1f f2 b9 bd
       0.038889974 -0.15644853 0.1372296 -0.09079384
000100 ad b4 42 3d e2 5d 5e 3d 27 4d 03 be f8 d3 d8 bd
       0.047535587 0.054288752 -0.128224 -0.10587305
000110 91 a3 6e bd c2 59 e7 3d a4 37 03 be 22 11 03 be
       -0.058261458 0.11296417 -0.12814194 -0.12799504
000120 3d d3 10 be 52 08 63 3d 20 02 1e 3e 4d e8 8c bd
       -0.14143081 0.055427857 0.15430498 -0.06880245
000130 bd 7f 66 bd 9d ed de 3c 02 1e 5d 3d f3 38 15 be
       -0.056274164 0.027212912 0.053983696 -0.14572506
000140 23 6c 41 3c 14 54 17 bc 53 41 6b 3d cc 4d ff 3d
       0.011805567 -0.009236354 0.057435345 0.124660105
000150 8e 10 f9 3c 91 e8 16 bd 98 ad 70 3d e8 c1 ed bd
       0.030403402 -0.036842886 0.058759302 -0.1160925
000160 6d 05 2b 3d e8 83 02 be 1f 41 f4 bd 8d 76 db bd
       0.04175322 -0.1274563 -0.11926483 -0.10715971
000170 10 ab cf bd c7 45 22 3d 8f 46 d0 bd c0 ce be bc
       -0.101400495 0.039617326 -0.10169708 -0.023291945
000180 99 fc 6c bd a5 7c ba bc d5 85 e2 bd 5d 80 da bc
       -0.057858083 -0.022764513 -0.11060683 -0.026672537
000190 4c e5 09 3e e6 9e a1 bd c9 58 be bd 22 c8 96 3c
       0.13466376 -0.078916356 -0.09294278 0.018405978
0001a0 c3 f0 af 3c 8f 3d 9a 3d 2b 10 d8 bb 6c 22 a3 bd
       0.021477109 0.075312726 -0.0065937242 -0.0796555
0001b0 da 1f 9f 3c dd b3 98 3c 94 81 09 be 60 f1 c9 3d
       0.019424368 0.018640453 -0.13428336 0.09860492
0001c0 16 ac 17 bd 61 8f 9e bd 53 4c 0d 3d 6f dd e4 3d
       -0.03702935 -0.07742191 0.034496617 0.111750476
0001d0 94 e6 b0 3c 28 d8 66 3d 61 93 08 be 5b 23 c7 3d
       0.021594323 0.056358486 -0.1333747 0.097235404
0001e0 f5 5e e3 bd 1e b9 15 be 6a 1e be bd 0e 9b d2 bd
       -0.11102096 -0.14621398 -0.09283145 -0.102834806
0001f0 46 70 2a bd 67 d6 cd bd 8f cb 20 be 6d f2 a5 3d
       -0.04161098 -0.100506596 -0.15702651 0.0810288
000200 6c 88 0a 3e 49 cc 3a 3d 57 a4 7e 3d 18 ea 0d be
       0.13528603 0.045604978 0.062168445 -0.13858831
000210 41 02 dc 3d 83 40 e2 3d a4 67 ff 3d e9 6d 6a 3d
       0.107426174 0.11047461 0.1247094 0.057233725
000220 35 b9 d8 bd 3b 76 be 3d fd 2a e4 bc ed d4 cf 3c
       -0.105822004 0.092998944 -0.02785253 0.025370086
000230 98 64 a0 bd 16 87 a6 bc f2 2b e0 bc 48 77 dc 3d
       -0.07831687 -0.020328086 -0.027364705 0.107649386
000240 c3 04 61 3c 3a 5c be 3c 92 55 19 3e 09 fc 19 3e
       0.013734045 0.023237336 0.14974049 0.1503755
000250 01 19 03 3d 5d 6b 08 be 5f a1 1b be 74 f8 63 3d
       0.032006267 -0.13322206 -0.15198277 0.055656865
000260 26 7b fc 3d 3c 02 12 be 4a 1c d3 3c 22 0f 10 3e
       0.12328176 -0.14258665 0.025770325 0.14068273
000270 b9 0e 0b 3e 19 65 5a 3d c4 5e e8 3d 84 36 d6 bd
       0.13579835 0.05331907 0.113462 -0.10459617
000280 bf de ef bd 8b 61 c8 bc cd 69 74 3d 4b ab fd 3d
       -0.11712407 -0.024460575 0.059671212 0.12386187
000290 a3 24 3d bd 73 27 0f be 1d 9c 02 3e 32 ea 15 3d
       -0.046177518 -0.13979892 0.12754865 0.0366003
0002a0 37 7a 19 be c4 64 e2 3d 49 09 bb 3c 17 dd a4 3d
       -0.14988028 0.11054376 0.022831576 0.08049982
0002b0 40 90 14 be 1f c0 3a 3d 2c 2c 8e bd aa a6 41 bd
       -0.14508152 0.045593377 -0.06942019 -0.047278084
0002c0 15 22 38 3d 3f 0c 05 be 5a 4f 2b 3d cc 58 6b bd
       0.04495438 -0.12992953 0.041823722 -0.05745773
0002d0 10 a3 74 bd cc 61 66 bc ae 4d 4a 3c a4 58 22 bd
       -0.05972582 -0.0140614025 0.012347622 -0.039635316
0002e0 9b 31 12 3e 8a 35 07 be e7 10 8f 3d c1 16 eb 3d
       0.14276735 -0.13204017 0.06985646 0.11478949
0002f0 60 0a f3 3d 4e 58 0a be 26 93 a9 3d 23 9c ce 3d
       0.11867213 -0.13510248 0.082800195 0.100883745
000300 65 79 1b 3e 30 8c fb 3d d1 fd be bd ad b5 02 3e
       0.15183027 0.12282598 -0.093257554 0.12764616
000310 f2 c4 08 be 0f 39 96 bc ca 47 1a 3d ec 99 1d bd
       -0.13356379 -0.018337755 0.03766612 -0.03847687
000320 07 ec ce 3d e8 f5 8b 3d 5b e8 4b 3c 82 8c a8 bc
       0.101036124 0.06834012 0.012445535 -0.020574812
000330 35 e3 a5 bd 90 b0 80 3d c6 c3 59 bc 4e f5 1f 3e
       -0.08099977 0.062836766 -0.013291305 0.1562092
000340 79 de 97 bd f6 1b 69 bd b0 5f d1 bd 1b 80 18 3e
       -0.0741548 -0.05691143 -0.10223329 0.14892618
000350 ac 75 bc bd 4d 32 1b 3e b7 1d 48 bc 31 79 96 3d
       -0.09202132 0.15155907 -0.012214116 0.07347334
000360 1f d1 ae 3d d6 6f 10 3e 53 4c 98 3d 56 3d e3 bd
       0.085359804 0.14105162 0.07436433 -0.11095683
000370 3b 89 0a be 4c 73 bc bc 72 62 fb 3d d0 0a 8a bc
       -0.13528912 -0.023004197 0.12274636 -0.016850859
000380 8d 16 bd 3d 19 c0 84 3d c0 db aa bd 6e d7 06 be
       0.09232817 0.06481952 -0.08342695 -0.13168117
000390 4a b1 b8 3d 05 91 0f be d3 48 14 bd 9d d6 8c 3d
       0.0901819 -0.14020164 -0.036202263 0.06876872
0003a0 11 3b a0 bb 26 80 3f bd 9c 2d a3 3d 68 d4 b9 bd
       -0.0048898538 -0.04675307 0.07967684 -0.090737164
0003b0 76 a9 f8 bc 1e ab 17 be 2f 8f 22 3e ec 45 19 be
       -0.030354243 -0.1481137 0.15874933 -0.1496808
0003c0 83 5e ad 3d ae fd bd bd f7 d4 b9 bd b4 b2 eb bd
       0.08465292 -0.09276901 -0.09073823 -0.11508694
0003d0 cd 3b 0b be 38 62 e3 3d 63 2a 70 bd 95 6e 8b bd
       -0.13597031 0.11102718 -0.058634173 -0.06808201
0003e0 2f f2 e5 bc ef a3 eb 3d b9 15 7d bd 34 85 cc 3d
       -0.028069584 0.11505877 -0.061788294 0.09986344
0003f0 fb c3 e5 bd 00 b9 09 be cf 2a d0 bd fc c0 5a bd
       -0.11219021 -0.13449478 -0.10164415 -0.0534067

bias f4 [40]
000000 cf d5 0b bd ed 41 77 3d 7b de cb bd a4 7e 3c bc
       -0.03413945 0.060365606 -0.09954544 -0.011504803
000010 53 a8 fb bd 00 f2 00 bd 39 26 a8 bc f4 40 89 3d
       -0.12287965 -0.03148079 -0.020526038 0.06701842
000020 16 39 1f 3e 41 50 83 3b 05 e0 f1 bc 13 be 09 3e
       0.1554912 0.0040073697 -0.029525766 0.13451414
000030 21 60 20 3d 01 c7 cb 3c 18 30 bb 3d af 7a a8 3a
       0.039154176 0.024875166 0.091400325 0.0012853945
000040 ac f7 f5 bd d2 de 79 3c 17 e0 81 bd cd 93 0b be
       -0.1201013 0.015250878 -0.0634157 -0.136306
000050 c5 7e c9 3d a2 4e 26 be 01 59 14 be 87 d5 26 3e
       0.098386325 -0.16240934 -0.14487077 0.16292392
000060 d1 e1 c7 3d 33 e1 e8 3c 69 3b 13 3e d2 bc 84 bc
       0.09759868 0.028427696 0.14378132 -0.016203318
000070 a7 04 67 bd cc b4 69 3d d6 1a 91 3d 97 00 c8 bd
       -0.05640092 0.057057187 0.07085197 -0.097657375
000080 b9 b9 05 be 61 44 65 3d 7c 5c a7 bd 06 b3 9c 3b
       -0.13059129 0.055973414 -0.08171937 0.0047820834
000090 ee 67 3b bd 8a 62 3e bb 96 cd 07 3e 09 d4 6b 3d
       -0.045753412 -0.0029050433 0.13262019 0.05757526

weight f4 [64, 40]
000000 37 80 0d be 54 ea b5 bc 05 66 de 3c 34 4a 38 3d
       -0.13818441 -0.022206463 0.027148256 0.04499264
000010 ad b2 28 bd 53 8f c8 b9 96 de 60 bd 47 c2 a0 3d
       -0.041186024 -0.00038253758 -0.054899774 0.078495555
000020 e9 77 2d 3d 5a 0f 29 bd d3 0e 8f 3d 53 77 90 bd
       0.042350683 -0.041274406 0.06985249 -0.07054009
000030 5e 48 fe 3d 6e 42 72 3d 42 fa 9e 3d af d7 c7 bd
       0.12416147 0.059145384 0.07762577 -0.09757935
000040 3e 33 e0 3d ee 8b a3 3d 25 8d 95 ba 2a 00 91 bd
       0.10947274 0.07985674 -0.0011409862 -0.070801094
000050 ea de 6c bc d5 c6 0e be 23 18 a7 3c 67 0e db bd
       -0.014457444 -0.13943036 0.020397251 -0.106961064
000060 8d d7 b5 bd eb a7 0a bd e4 c8 d5 3d 84 3b e1 bd
       -0.08879004 -0.033851545 0.104387075 -0.1099768
000070 1a 86 b5 bd ee 98 21 be 14 0f 25 3d 47 a6 a5 3d
       -0.088634685 -0.15780994 0.040297583 0.080883555
000080 2c 9f 9a bc 58 9b cf 3d 47 07 f7 3c 9a 32 ff bd
       -0.018874727 0.10137051 0.030154837 -0.12460823
000090 7c 48 9e bd eb b8 85 bd e8 42 9c 3d 29 c1 99 bd
       -0.07728669 -0.06529411 0.07629949 -0.075075455
0000a0 02 70 66 bc 35 65 a5 bd 40 7b 02 be 43 f4 21 3e
       -0.014064791 -0.08075944 -0.12742329 0.15815835
0000b0 4f a9 11 be e5 6a 47 bd 48 54 28 3d 4d d4 20 be
       -0.14224742 -0.048685927 0.041096002 -0.15705986
0000c0 57 ef e6 bc c9 6f 84 bd 86 da 0d 3e dc cf 82 bc
       -0.028190298 -0.06466634 0.13852891 -0.015968256
0000d0 dd 6f d9 3b ea ae 73 bd 0f cd 20 3e f2 8f ae 3c
       0.0066356496 -0.059492983 0.15703224 0.021308873
0000e0 c0 ef 78 3d f8 8f 79 3c af 22 19 3d 55 7c 2a bd
       0.06077552 0.015232079 0.037386592 -0.04162248
0000f0 13 62 07 bd 60 17 8c bd a9 7a a7 bd 09 28 13 3e
       -0.033052515 -0.06840396 -0.081776924 0.14370741
000100 58 ea 05 be 9e c3 04 3e 5c 93 a0 bc f2 7f dd bd
       -0.13077676 0.12965247 -0.019601516 -0.10815419
000110 df ae 0c be 8f c2 83 3d e1 98 41 bd 78 cc 05 3e
       -0.13738583 0.064335935 -0.047264937 0.1306628
000120 43 2e 56 bd 5c a6 e7 3d a0 18 a6 bd 4b 26 02 be
       -0.052290212 0.113110274 -0.081101656 -0.1270992
000130 02 57 64 bc 0b c1 df bc 30 c0 a0 bd 0c b5 44 3d
       -0.01393676 -0.02731373 -0.07849157 0.048024222
000140 fd 53 18 bd 5e e6 d5 bd ca 97 0a be d1 f5 0a 3d
       -0.037189472 -0.1044433 -0.13534465 0.033925835
000150 a8 fb 75 3d cb c0 88 bc 4e 7e c6 bd 8f ca 12 3e
       0.06005445 -0.016693493 -0.096920595 0.14335082
000160 ec e8 36 bd 4b b6 42 3d 28 34 1b bc 16 fb 26 3e
       -0.044655725 0.04753713 -0.009472884 0.16306719
000170 48 9c 0f be 90 62 d4 bd 11 a3 b2 bd 2d 55 3f bd
       -0.1402446 -0.10370362 -0.08722509 -0.04671209
000180 63 d3 bd bd 96 d5 98 3b 5b d2 f7 3c cf 49 04 be
       -0.092688344 0.0046641333 0.030251672 -0.1291878
000190 ef 77 20 3e d5 bb 04 3d 99 0a 8c 3c 35 c0 5e 3d
       0.15670751 0.032405693 0.017094897 0.05438252
0001a0 59 6f 0f be f8 3d 00 be 21 c9 e6 bd ed f4 c6 3a
       -0.1400732 -0.12523639 -0.11268831 0.0015179195
0001b0 32 d0 11 3e 2b c5 1f 3e e0 a4 2a 3e 1f 9e 93 3d
       0.14239576 0.15602557 0.16664457 0.072078936
0001c0 9f 1c b8 bc de 6e 9b 3d 35 33 02 3e 9e 8d b4 bb
       -0.022474585 0.075895056 0.12714846 -0.005510046
0001d0 ee d9 51 3d 6d 95 01 3e a3 11 13 bc c2 c4 c4 bd
       0.051233225 0.12654658 -0.008976373 -0.09607841
0001e0 92 a7 05 be 8a 55 2a 3e e7 38 29 be 84 9a 70 3d
       -0.13052204 0.16634193 -0.16525613 0.058741108
0001f0 e2 b9 00 bc d7 89 6d bd d7 57 20 3e 65 71 de bd
       -0.007856818 -0.057992782 0.15658508 -0.10861472
000200 67 fe c0 bd 19 39 b9 3d a0 a2 14 be c6 78 f9 3c
       -0.094235234 0.09044094 -0.14515162 0.030453097
000210 23 d6 a4 3d 0b 66 00 3e ba 08 53 3c 58 51 13 be
       0.08048656 0.12538926 0.012880499 -0.14386499
000220 15 b3 be bd ab 85 5a 3d c2 98 07 3d 88 c7 f6 bd
       -0.09311501 0.053350132 0.033104666 -0.12049776
000230 a2 34 86 bd 3d 96 8b 3c 4f 0b b5 bd 97 50 17 3e
       -0.06553008 0.017039413 -0.088400476 0.14776836
000240 58 c8 dc 3d 87 75 d7 3c f3 ed 21 3d 50 d9 00 3e
       0.107804 0.026301159 0.039533567 0.12582898
000250 ba 34 de bc 2b 10 d0 bd fc 39 b6 bd 90 02 05 3e
       -0.027124751 -0.10159334 -0.088977784 0.12989259
000260 c2 b6 04 bd ec 54 cd 3d 92 4a b8 bc 41 e8 0e be
       -0.032400854 0.10025963 -0.022496495 -0.13955785
000270 f8 16 05 be e1 91 ea bc a5 63 69 3d 97 cd 48 3d
       -0.12997043 -0.028634014 0.056979794 0.04902419
000280 c2 b9 b0 bd 30 e8 49 bc 12 d6 c1 bd 3c 78 ae bd
       -0.086291805 -0.012323424 -0.09464659 -0.08519027
000290 82 89 9f bd c2 da 24 3e a4 95 12 3e be 51 24 bd
       -0.077898994 0.16099074 0.14314896 -0.040117018
0002a0 89 fd e6 bd 3b e1 fd 3d 3d 7c b1 bd 57 cf f1 3d
       -0.11278827 0.12396475 -0.08666275 0.11807125
0002b0 5a 59 f1 bd ee 39 e1 3d 47 9c 0e be 51 bb be bd
       -0.117846206 0.10997377 -0.13926803 -0.093130715
0002c0 c7 da 6d bb 42 14 fd bd 8c ad 03 be a9 b9 dd 3c
       -0.0036293732 -0.123573795 -0.12859172 0.027066069
0002d0 0e d5 0e bd 6e 4b 04 3e a5 c0 a2 bd ce 99 02 3c
       -0.034871154 0.12919399 -0.079469 0.00797124
0002e0 32 e2 b2 bd 82 85 4e bd 39 fe 1b be 49 bd a6 bd
       -0.087345496 -0.05042029 -0.15233697 -0.08141572
0002f0 94 10 a4 bd d1 f8 2d 3d f0 05 fe 3d a1 89 e8 3d
       -0.080109745 0.042473618 0.12403476 0.11354376
000300 d1 4c 0f 3e 4b a7 04 be e6 1d f0 3d 05 85 e9 3d
       0.13994147 -0.12954442 0.11724453 0.114023246
000310 a8 2d f9 bd ad 48 a8 bd 68 19 c7 bb a6 34 d4 bd
       -0.12166911 -0.08216987 -0.0060760267 -0.103616044
000320 16 90 10 be 9c 21 88 bd f1 03 c3 bc ed ed fe 3d
       -0.14117464 -0.066470355 -0.02380559 0.124477245
000330 ce 50 fe bd fc 27 0e 3e a4 09 ac bd fc 83 26 be
       -0.12417756 0.1388244 -0.08400276 -0.16261286
000340 e8 40 00 be 62 a1 49 3d 55 24 0f 3e 24 c2 19 3d
       -0.1252476 0.049226172 0.13978703 0.037538663
000350 ef f8 cc bd 61 fe bd 3d 4b c9 c2 3c 89 bc d1 3a
       -0.10008418 0.092770346 0.023777625 0.0016001622
000360 a3 13 0e 3e 45 43 e5 bd 15 75 4f 3c 26 5b b6 bd
       0.13874678 -0.11194471 0.012662192 -0.08904104
000370 7b 93 28 bb 2e b2 ee bd e6 d3 07 bc 94 7d d4 bd
       -0.002572267 -0.11655079 -0.008290267 -0.103755146
000380 54 56 f2 bd 33 73 04 3e e0 29 f5 3d 51 b2 91 bd
       -0.11832872 0.1293457 0.11970878 -0.07114089
000390 96 38 8f 3d 8c de 0f 3c 1b 8d 05 3d 52 6f fa 3d
       0.06993215 0.008781087 0.03260527 0.12228264
0003a0 1e 23 0d be 17 03 07 3e 41 91 f4 3d 82 21 08 be
       -0.13782927 0.13184772 0.119417675 -0.13294032
0003b0 a4 54 85 bd 79 18 1d 3e 1f 8a 05 be 9d fa f0 bd
       -0.065102845 0.15341367 -0.1304097 -0.11766551
0003c0 b1 57 95 3d 3a 6d 12 3e ea 49 b3 bd e2 56 23 be
       0.072921164 0.14299479 -0.08754332 -0.15951112
0003d0 12 61 2c be e1 5c 9d bd d8 c5 5b 3d ea 5f 9c bd
       -0.16833904 -0.07683731 0.053655475 -0.07635482
0003e0 e1 29 10 be 9d 31 39 bd 89 d0 04 3e ce 11 a4 3d
       -0.14078476 -0.04521333 0.12970175 0.080112085
0003f0 20 d9 10 3e 08 8f 14 3e 35 5f f3 bd e8 bd 11 3e
       0.14145327 0.14507687 -0.11883394 0.142326

bias f4 [64]
000000 96 35 ae 3c 49 4d 01 3d 5f 89 70 bd f4 a9 b1 bc
       0.021265786 0.031567845 -0.058724757 -0.021687485
000010 1f f5 24 3c 6c ef 24 be 79 c2 78 3d bc b6 e4 3d
       0.010068207 -0.16106957 0.06073234 0.11167666
000020 4a 13 bf 3d 14 36 d2 bc 81 4e d2 3b 15 0e 5e 3d
       0.09329851 -0.025660552 0.00641805 0.05421265
000030 5a cc 4a bd 55 e8 cd bd 83 c1 db 3c 45 71 1e 3e
       -0.04951129 -0.100540794 0.026825672 0.15472896
000040 da b0 87 bd 49 8c d8 bd 66 51 34 3d a2 2c ad bd
       -0.06625529 -0.10573632 0.04402294 -0.08455779
000050 b8 fd de bd d1 a4 a1 3b 69 9e 27 3e 38 d3 12 3e
       -0.10888237 0.0049329777 0.16369022 0.14338386
000060 9f c1 eb 3d 2a 9e c0 3c 72 5f 07 be ee 2e ad 3d
       0.1151154 0.023512919 -0.13220003 0.08456217
000070 7e 2b d1 3c ba 6d 8b 3d dd d0 62 bd 06 8f 94 bd
       0.025533434 0.06808038 -0.05537497 -0.07253842
000080 9e 5c 13 3e 97 d4 d8 3d 58 20 f9 3d 88 da 0b 3e
       0.143908 0.10587423 0.12164372 0.13657582
000090 dd 35 dd 3d 2f 47 35 3e d0 65 ed 3d 94 28 a6 bd
       0.10801289 0.17702936 0.11591685 -0.081132084
0000a0 dd d7 ef 3c 88 17 02 be 91 ed 33 bc d9 29 87 bd
       0.029277736 -0.12704289 -0.010981933 -0.06599779
0000b0 ba a9 16 3e 73 9b 41 3d 5e 6b c7 bd 4d 14 80 3d
       0.14713183 0.04726739 -0.097372755 0.06253872
0000c0 55 e2 8e bd 00 17 93 3d 19 be 59 3c f9 58 2e be
       -0.06976763 0.07182121 0.013289952 -0.17026128
0000d0 bd 80 06 3e d0 5c 0b be bb ea 18 be 26 27 8e 3d
       0.13135047 -0.13609624 -0.14933293 0.06941061
0000e0 05 13 af 3d ec e3 cc 3c e9 4d fa bd 4f 2b ff 3d
       0.085485496 0.025011025 -0.122218914 0.12459432
0000f0 2e 6a 8a 3d bb d3 9d bd 49 ba 9f bd b0 fa ce 3d
       0.067585334 -0.077064 -0.07799203 0.101064086
