Prediction_Using_DNN/finalmodel.pt (torch, 721273 bytes, 100 tensors)

weight f4 [80, 80]
0.026184496 0.044661615 0.073644966 -0.0033144834 -0.00902304 -0.002217599 0.06437064 0.0027192233
0.08366318 -0.08131778 0.032801185 0.1070623 0.044518486 0.03506949 -0.028723866 -0.018036062
-0.053415064 0.08386093 0.012301531 -0.0966247 0.000838225 -0.061647408 0.14110333 0.051962066
-0.014663974 0.018095521 0.014629724 -0.010702007 0.03957733 -0.05634151 -0.053888552 0.08875626
0.054290388 -0.033385213 0.04819108 0.06117388 0.037991222 -0.032965187 -0.0002964049 -0.02551468
0.12626101 0.010912467 -0.07513432 0.07904182 -0.05097964 -0.07981747 -0.072180584 0.110146515
0.06565224 0.0039231316 -0.06580005 -0.066050455 0.0022271336 0.050695572 -0.061360717 0.012808458
0.024970807 0.004608311 0.04003575 0.03923409 -0.018924342 -0.14134471 0.059999086 -0.030282047
0.0060052257 0.051722758 0.0387461 0.065573804 -0.11624263 0.0788593 0.019075492 0.04014122
0.05099893 -0.0698078 -0.00675814 -0.10607562 -0.1051953 0.033734366 -0.07411237 -0.033487853
0.0047468133 -0.07062744 -0.049617954 0.08066033 0.0015233717 0.0041785487 -0.026167246 -0.07130342
0.005732671 0.0391203 0.16468899 0.050657295 -0.07132023 0.08970549 -0.071376406 0.005402385
-0.13381328 -0.0023408008 -0.10408311 -0.1301154 -0.04611313 0.062292684 0.08555269 0.027187455
-0.088079676 -0.09942896 0.025000887 0.026953246 0.062760115 -0.057554316 -0.022660173 0.0023037738
-0.06666959 -0.017935686 -0.083048545 -0.0844809 -0.07378961 -0.04948161 0.04896717 0.019557044
-0.046902955 -0.05250892 -0.038502492 0.015379331 0.09034442 0.0002362379 0.09842353 -0.03214162
0.11169216 0.077162705 -0.14020742 0.05833899 -0.016118478 0.09096604 0.0017441097 0.087299675
0.055684797 0.013862474 0.04308118 0.12754887 0.07099012 -0.100231186 -0.12034932 0.056496322
-0.0024440936 -0.05279209 -0.081357196 -0.12438815 -0.10001277 -0.077238075 -0.13502006 -0.030333001
-0.088405676 -0.122606635 0.064141 -0.051307056 -0.024324792 -0.08763042 -0.03880423 0.1620144
0.1443549 0.09705066 -0.12505367 0.038011063 0.0045702094 0.082458474 0.03453664 -0.0009787387
-0.014215258 -0.08603636 0.033214316 -0.007396026 0.05230421 0.09690461 0.032372847 -0.05711483
0.09795323 0.07957496 -0.046974007 0.13955668 0.0801095 -0.030523002 0.05969283 0.1598849
0.18009424 0.0075409897 0.1675133 0.15177861 0.05934202 0.1070111 -0.006895343 0.16194808
0.110417955 -0.031654745 -0.11194564 -0.013152357 -0.057342913 -0.04015154 0.067211024 -0.008006041
-0.0012549257 -0.0051562837 0.13615234 0.14550821 -0.07559397 0.076180845 -0.05192235 0.025349978
0.053470924 0.10824957 0.041516446 0.14519192 0.07914604 0.105049096 0.12754466 0.031382397
0.08373537 0.051674638 -0.06570853 0.01837851 0.04035554 -0.013675779 0.14246848 -0.0862063
0.07779202 -0.011300963 -0.065135695 0.0133438725 -0.051516037 -0.1436404 -0.083474346 0.03570703
-0.0221652 -0.13280833 0.010776898 -0.047489878 -0.04066642 0.04693726 -0.03351213 0.013801755
0.0037512705 -0.05412401 0.0055658966 0.09271701 -0.051863834 -0.086874485 -0.030012332 -0.062121063
-0.05900627 0.085479096 -0.027719252 0.052987367 0.101835355 0.0065319315 -0.046360224 -0.08810695
00000000: de80 d63c 19ef 363d 2cd3 963d ce37 59bb
00000010: 5fd5 13bc 2355 11bb c1d4 833d ff34 323b
00000020: 9a57 ab3d f089 a6bd 895a 063d 7b43 db3d
00000030: 0459 363d 07a5 0f3d 504e ebbc 5dc0 93bc
00000040: c1c9 5abd 47bf ab3d 5c8c 493c 2ce3 c5bd
00000050: 54bc 5b3a fe81 7cbd 647d 103e 2dd6 543d
00000060: 2a41 70bc 0f3d 943c 83b1 6f3c 7957 2fbc
00000070: d71b 223d 5bc6 66bd 3eba 5cbd d8c5 b53d
00000080: 995f 5e3d efbe 08bd 0364 453d 7691 7a3d
00000090: af9c 1b3d 8106 07bd cb66 9bb9 2a04 d1bc
000000a0: 914a 013e 34ca 323c 06e0 99bd ade0 a13d
000000b0: 07d0 50bd 5777 a3bd 6ad3 93bd 7f94 e13d
000000c0: ae74 863d 9d8d 803b 2dc2 86bd 7645 87bd
000000d0: 1af5 113b 29a6 4f3d 6055 7bbd 91da 513c
000000e0: 948f cc3c 5101 973b 87fc 233d edb3 203d
000000f0: 3907 9bbc abbc 10be 9ac1 753d 0e12 f8bc
00000100: 7cc7 c43b 3edb 533d 3bb4 1e3d 8f4b 863d
00000110: 9e10 eebd fc80 a13d 3544 9c3c 1f6b 243d
00000120: 41e4 503d 64f7 8ebd 6373 ddbb 2d3e d9bd
00000130: a270 d7bd 0c2d 0a3d 3ac8 97bd 8f2a 09bd
00000140: 288b 9b3b 1fa5 90bd 323c 4bbd 3e31 a53d
00000150: dfab c73a 35ec 883b b15c d6bc 8707 92bd
00000160: 21d9 bb3b 9c3c 203d 3ba4 283e 067e 4f3d
00000170: 5710 92bd 83b7 b73d cb2d 92bd 7d06 b13b
00000180: 5906 09be 1f68 19bb 8729 d5bd f93c 05be
00000190: 1fe1 3cbd 9d26 7f3d 4036 af3d 3ab8 de3c
000001a0: 1e63 b4bd 69a1 cbbd a9ce cc3c 0ecd dc3c
000001b0: 6088 803d 13be 6bbd d4a1 b9bc e9fa 163b
000001c0: 118a 88bd dced 92bc 5b15 aabd 5204 adbd
000001d0: 021f 97bd 3bad 4abd cd91 483d 1836 a03c
000001e0: 501d 40bd 9813 57bd cab4 1dbd 97f9 7b3c
000001f0: 7f06 b93d a1b6 7739 4792 c93d eea6 03bd
00000200: dcbe e43d 7b07 9e3d 8992 0fbe ddf4 6e3d
00000210: e60a 84bc 674c ba3d 9c9a e43a 2cca b23d
00000220: be15 643d 6e1f 633c e475 303d 2c9c 023e
00000230: 4563 913d 0246 cdbd b479 f6bd b068 673d
00000240: 162d 20bb 853c 58bd 9a9e a6bd 37bf febd
00000250: 7fd3 ccbd ff2e 9ebd b342 0abe ea7c f8bc
00000260: 090e b5bd 3019 fbbd 5b5c 833d 5927 52bd
00000270: c944 c7bc 9477 b3bd 2ff1 1ebd 1ae7 253e
00000280: c5d1 133e 7fc2 c63d 120e 00be 7db1 1b3d
00000290: b2c1 953b fddf a83d 4b76 0d3d 0549 80ba
000002a0: 1de7 68bc d533 b0bd bc0b 083d 5d5a f2bb
000002b0: f03c 563d ed75 c63d 6499 043d 3df1 69bd
000002c0: b49b c83d 32f8 a23d d167 40bd f2e7 0e3e
000002d0: 7310 a43d 600b fabc 7880 743d deb8 233e
000002e0: a06a 383e 681a f73b 9b88 2b3e da6b 1b3e
000002f0: 9e10 733d a328 db3d 54f2 e1bb b8d5 253e
00000300: cf22 e23d 68a8 01bd c143 e5bd fc7c 57bc
00000310: 67e0 6abd f175 24bd efa5 893d c52b 03bc
00000320: 527c a4ba 0bf6 a8bb 856b 0b3e 1b00 153e
00000330: 03d1 9abd b404 9c3d 88ac 54bd c2aa cf3c
00000340: 5404 5b3d f3b1 dd3d 260d 2a3d 31ad 143e
00000350: 5217 a23d fb23 d73d 119b 023e d48a 003d
00000360: 737d ab3d c9a8 533d 3292 86bd 878e 963c
00000370: da4b 253d 6010 60bc 42e3 113e ee8c b0bd
00000380: 6c51 9f3d ad27 39bc dd65 85bd 42a0 5a3c
00000390: 7b02 53bd 7816 13be 99f4 aabd 8941 123d
000003a0: cb93 b5bc e8fe 07be 9691 303c bf84 42bd
000003b0: d591 26bd 4941 403d 0444 09bd c220 623c
000003c0: e0d7 753b 23b1 5dbd 2062 b63b 6ae2 bd3d
000003d0: 2c6f 54bd 40eb b1bd 6cdc f5bc a872 7ebd
000003e0: 8fb0 71bd aa0f af3d 7c13 e3bc 4809 593d
000003f0: 0e8f d03d d009 d63b 38e4 3dbd 6b71 b4bd

bias f4 [80]
-0.052807394 0.071756974 -0.06393858 0.10255578 0.05509187 -0.13878322 -0.1043318 0.037273504
0.10495184 -0.0003090949 0.0034468935 0.0092513785 -0.028243063 -0.025069721 -0.046995874 0.058389056
0.013428177 0.10235755 -0.08176833 0.06504957 0.16841719 -0.13487658 -0.10223193 0.06586822
-0.069149956 0.061309975 -0.09464838 -0.12739474 -0.018864773 -0.029720977 -0.07712844 -0.013821089
-0.0029482963 0.10430546 -0.071408674 0.017733594 -0.101326466 -0.14387429 -0.051592696 -0.03226386
-0.020998202 0.030402709 -0.10458795 0.07838509 0.01002639 -0.0031630879 -0.0821014 -0.1512872
0.020827144 0.03798369 0.08999355 0.08927984 -0.009185581 -0.061937034 0.09720285 0.04535923
0.075718805 -0.013600452 0.04322031 -0.14918914 0.06917897 -0.08700983 0.055404935 -0.005870933
-0.0032479423 0.045666866 0.11012322 -0.10953333 -0.121294156 0.06140583 -0.006100945 -0.012152021
0.09649995 -0.026113674 0.1098295 -0.04463255 0.061410688 0.08830857 -0.12709546 0.051966358
00000000: 914c 58bd 52f5 923d 3bf2 82bd c408 d23d
00000010: 03a8 613d 301d 0ebe e9ab d5bd 1aac 183d
00000020: fef0 d63d 040e a2b9 47e5 613b 1893 173c
00000030: ff5d e7bc 045f cdbc bf7e 40bd 5d29 6f3d
00000040: db01 5c3c d6a0 d13d 2776 a7bd b538 853d
00000050: 8e75 2c3e 161d 0abe f95e d1bd ebe5 863d
00000060: 7e9e 8dbd 2b20 7b3d 03d7 c1bd c473 02be
00000070: 4c8a 9abc 6879 f3bc 84f5 9dbd d971 62bc
00000080: 3438 41bb 1a9e d53d b63e 92bd 0b46 913c
00000090: 4084 cfbd c853 13be dd52 53bd 1c27 04bd
000000a0: 6c04 acbc 1a0f f93c 3532 d6bd 5d88 a03d
000000b0: ba45 243c cf4b 4fbb c724 a8bd 08eb 1abe
000000c0: b09d aa3c c994 1b3d 8a4e b83d 59d8 b63d
000000d0: 1e7f 16bc b0b1 7dbd 4a12 c73d 9aca 393d
000000e0: 7612 9b3d 6ed4 5ebc c807 313d 0ac5 18be
000000f0: b4ad 8d3d 3632 b2bd 49f0 623d f560 c0bb
00000100: 6edb 54bb 2e0d 3b3d 4888 e13d 0353 e0bd
00000110: 1269 f8bd ae84 7b3d 70ea c7bb 4519 47bc
00000120: c4a1 c53d 58ec d5bc 4aee e03d 9fd0 36bd
00000130: c689 7b3d 20db b43d 5025 02be adda 543d

weight f4 [20, 80]
0.08601279 0.14677434 0.0019469435 -0.04691004 -0.14375168 0.10108872 -0.05655607 0.069180116
0.04502512 0.054169584 -0.114508025 0.03813821 0.1188847 0.09289269 -0.06943966 -0.16673504
0.06154543 0.048989426 -0.018257536 0.027768346 -0.019243786 0.085054345 0.006135086 -0.07078335
-0.077406965 0.07361054 0.041284446 0.10342828 -0.0046588136 0.00785081 -0.017656393 0.03904157
-0.053569898 -0.03436932 0.061873764 -0.04974134 0.09134106 0.08834362 -0.04389205 -0.09738563
-0.02966033 -0.02043966 0.12171691 -0.099534914 0.016979419 -0.13681819 0.09886488 0.062833495
0.062674314 -0.07509922 0.026872467 -0.13553941 0.09561541 -0.003310846 0.06255248 -0.10214504
-0.14514773 -0.015227451 0.063226886 0.050537247 0.018993929 -0.071533225 0.09981827 0.07559499
-0.031553037 0.06298122 0.066006124 0.056465365 -0.12466179 -0.11111588 -0.06737463 -0.067943715
-0.06158232 0.051025614 0.006060304 0.08902513 -0.07611248 0.0032385066 -0.038432155 -0.021515086
-0.072474755 0.026426718 0.032773845 0.05294442 -0.024025133 -0.049109638 0.023289414 -0.030221343
-0.07672174 0.100912474 -0.068763584 0.061724454 -0.054309413 -0.014284499 -0.090490915 -0.0987718
0.02687179 -0.10016392 -0.07871043 0.061454013 -0.04617834 0.101620525 -0.106775254 0.058866728
-0.060483266 -0.06020545 -0.02090217 0.021876762 -0.1159643 -0.07779167 0.083768085 -0.052507233
-0.0010006634 0.10048948 -0.05765153 -0.013420073 0.08227214 0.049041606 0.039871257 -0.08338417
0.034990564 -0.05090047 -0.04031233 -0.08474113 0.04834366 0.07977604 0.043678433 -0.11069297
0.053248256 0.021232573 0.034459062 0.017167648 0.08620401 0.06169392 -0.006519961 -0.043308772
-0.004694554 -0.0013560319 -0.07316109 -0.039070327 0.09766132 -0.010622159 0.08297254 0.05332771
-0.008846136 -0.06332971 0.020875268 0.0773338 0.023694284 0.06125019 0.034714043 0.02656941
-0.0008784607 -0.08211625 0.05257217 0.07915379 0.10079075 -0.022480354 -0.09232847 -0.012771992
-0.09227013 0.076023825 -0.10303656 0.044118628 0.043396544 -0.048736006 -0.055124983 -0.13163579
0.016644642 -0.07390323 -0.027465448 -0.097474486 -0.08348843 0.08708651 0.004150781 -0.05287152
-0.01950151 0.07234154 0.0869433 -0.033712104 -0.10866287 -0.10172869 0.01337718 0.07323115
-0.053890064 -0.08430622 -0.058891132 0.11856266 -0.117829636 -0.026734976 -0.09000917 -0.022327786
-0.075438745 0.07361989 -0.10370098 -0.062472556 -0.052265633 -0.06738623 0.052096035 -0.015571184
0.10636355 -0.11488926 0.12799168 0.06410212 0.046297178 -0.047754887 -0.054491278 -0.033493336
-0.097721174 0.06447964 0.032317746 0.07563087 -0.028988063 -0.057322644 0.07634774 0.06690609
-0.033724535 -0.041436248 0.009624512 -0.11254468 -0.0046659186 -0.022317542 -0.10570759 0.10816782
0.009309087 -0.008512807 -0.033568066 -0.0762584 0.03186283 -0.11458933 0.022123888 0.11036893
-0.027068816 0.073575065 -0.024809312 -0.033109434 -0.05286276 0.02102907 -0.11988695 -0.014957012
0.06900213 0.0883161 -0.049294394 0.09935625 -0.03178317 -0.037783857 -0.072674856 0.09539457
0.061573 -0.09520599 -0.04941811 -0.10944537 0.0400641 -0.04050915 -0.03364688 -0.061998833
00000000: 7927 b03d 034c 163e 9530 ff3a be24 40bd
00000010: a433 13be 9a07 cf3d 56a7 67bd 4eae 8d3d
00000020: 436c 383d ede0 5d3d 2f83 eabd d036 1c3d
00000030: d279 f33d 863e be3d 6136 8ebd 97bc 2abe
00000040: 1017 7c3d 23a9 483d d490 95bc 717a e33c
00000050: 25a5 9dbc f930 ae3d d508 c93b dcf6 90bd
00000060: 8b87 9ebd 1fc1 963d e119 293d 35d2 d33d
00000070: f6a8 98bb afa0 003c 24a4 90bc 0eea 1f3d
00000080: 1c6c 5bbd d8c6 0cbd 586f 7d3d 93bd 4bbd
00000090: 0611 bb3d 80ed b43d 26c8 33bd 1e72 c7bd
000000a0: 38fa f2bc 1371 a7bc b746 f93d f6d8 cbbd
000000b0: 6c18 8b3c 111a 0cbe ac79 ca3d d9ae 803d
000000c0: 645b 803d 9fcd 99bd a623 dc3c d8ca 0abe
000000d0: 03d2 c33d c7fa 58bb 841b 803d 6b31 d1bd
000000e0: 9ba1 14be 8f7c 79bc 197d 813d 2500 4f3d
000000f0: 2899 9b3c 0380 92bd 856d cc3d 8cd1 9a3d
00000100: c23d 01bd 4cfc 803d 382e 873d 3a48 673d
00000110: ae4e ffbd b990 e3bd b6fb 89bd 1326 8bbd
00000120: be3d 7cbd 3c00 513d 8495 c63b cf52 b63d
00000130: dce0 9bbd 203d 543b 096b 1dbd 6840 b0bc
00000140: a56d 94bd d87c d83c de3d 063d 40dc 583d
00000150: 5bd0 c4bc 3027 49bd 71c9 be3c c092 f7bc
00000160: 4a20 9dbd 33ab ce3d ecd3 8cbd c8d2 7c3d
00000170: 8c73 5ebd 8809 6abc 4d53 b9bd df48 cabd
00000180: 3a22 dc3c be22 cdbd ef32 a1bd 34b7 7b3d
00000190: 8025 3dbd 6c1e d03d fcac dabd 3d1e 713d
000001a0: 4dbd 77bd fd99 76bd 073b abbc e536 b33c
000001b0: b17e edbd 3d51 9fbd 9a8e ab3d d311 57bd
000001c0: b128 83ba 6ecd cd3d 0324 6cbd dedf 5bbc
000001d0: 4c7e a83d dadf 483d 0b50 233d 52c5 aabd
000001e0: 4452 0f3d 037d 50bd 8b1e 25bd c28c adbd
000001f0: 0004 463d 9f61 a33d 28e8 323d ffb2 e2bd
00000200: d81a 5a3d efef ad3c f224 0d3d 2ba3 8c3c
00000210: ba8b b03d c4b2 7c3d 66a5 d5bb 8a64 31bd
00000220: c6d4 99bb e1bc b1ba 7bd5 95bd 3508 20bd
00000230: a802 c83d 9008 2ebc 82ed a93d 286e 5a3d
00000240: 62ef 10bc 02b3 81bd 9c02 ab3c 2f61 9e3d
00000250: 841a c23c 7be1 7a3d 5030 0e3d 17a8 d93c
00000260: 8048 66ba 912c a8bd ea55 573d 621b a23d
00000270: 616b ce3d b828 b8bc b516 bdbd 9e41 51bc
00000280: 1ff8 bcbd 61b2 9b3d d504 d3bd bcb5 343d
00000290: 93c0 313d 689f 47bd bcca 61bd 88cb 06be
000002a0: 585a 883c 945a 97bd 38ff e0bc b4a0 c7bd
000002b0: fbfb aabd 6a5a b23d 4603 883b cf8f 58bd
000002c0: a1c1 9fbc cd27 943d 540f b23d b415 0abd
000002d0: a48a debd 2257 d0bd f62b 5b3c 37fa 953d
000002e0: d4bb 5cbd bda8 acbd d437 71bd fbd0 f23d
000002f0: aa50 f1bd 4f03 dbbc ba56 b8bd c3e8 b6bc
00000300: a17f 9abd 06c6 963d 2e61 d4bd 39e3 7fbd
00000310: 7d14 56bd cb01 8abd a762 553d 481e 7fbc
00000320: 22d5 d93d 0f4b ebbd 4010 033e f947 833d
00000330: 1ca2 3d3d a19a 43bd 3f32 5fbd 4f30 09bd
00000340: 0a22 c8bd e70d 843d 9d5f 043d 5ce4 9a3d
00000350: 6078 edbc 26cb 6abd 345c 9c3d 0f06 893d
00000360: bd22 0abd 0eb9 29bd 21b0 1d3c d37d e6bd
00000370: 90e4 98bb 47d3 b6bc 397d d8bd 1787 dd3d
00000380: 2485 183c 4d79 0bbc ab7e 09bd 5d2d 9cbd
00000390: 9982 023d d0ad eabd 283d b53c 1b09 e23d
000003a0: 6cbf ddbc 86ae 963d e63c cbbc c29d 07bd
000003b0: 9f86 58bd 2845 ac3c 4a87 f5bd 410e 75bc
000003c0: fd50 8d3d 12df b43d ebe8 49bd 4a7b cb3d
000003d0: 122f 02bd 3fc3 1abd 8ed6 94bd 3a5e c33d
000003e0: f833 7c3d 5cfb c2bd a56a 4abd e524 e0bd
000003f0: 411a 243d ecec 25bd 50d1 09bd 7df2 7dbd

bias f4 [20]
-0.08679945 -0.0584085 -0.10410928 -0.028512964 -0.083296366 -0.12548643 0.071019605 0.025697313
-0.08200762 0.046531204 -0.10105985 -0.09467674 0.04480275 0.041937627 -0.025542822 -0.05686614
-0.019329505 -0.05157313 0.10460836 -0.066710465
00000000: e9c3 b1bd c03d 6fbd 3f37 d5bd 0594 e9bc
00000010: 4997 aabd 847f 00be ba72 913d 2c83 d23c
00000020: 9cf3 a7bd 8197 3e3d 77f8 cebd e1e5 c1bd
00000030: 1783 373d cac6 2b3d 2e3f d1bc 78ec 68bd
00000040: e958 9ebc 593e 53bd e83c d63d 7f9f 88bd

weight f4 [20, 80]
0.013779862 -0.040934183 0.02605815 0.02939404 0.0026872933 -0.043230213 0.023115065 0.0029890263
0.03741512 0.07718932 -0.10964559 -0.105971575 0.03287302 0.06453635 -0.03366434 -0.033278037
-0.09275919 -0.11248463 0.028232405 -0.019513194 -0.0863372 -0.015652541 -0.011109946 -0.14209011
0.047960997 0.05187762 -0.08184992 0.09255655 0.02793653 0.041143507 0.054082002 -0.00888071
-0.08569241 -0.10904889 -0.040663674 -0.045148365 -0.015896883 -0.09284679 -0.09359336 -0.0038529304
-0.10872681 -0.067487165 -0.059026334 -0.118960716 -0.03787135 -0.09832666 -0.070320085 -0.0025974964
0.061574258 -0.057006102 -0.07696713 -0.089952655 -0.006579077 0.09144629 -0.04185067 -0.0054534595
-0.07459564 0.06217171 0.011929547 -0.019664353 -0.015915325 -0.023390127 0.047730867 -0.002156689
0.010037134 0.08561466 0.009916679 0.08563268 -0.10871931 0.08335326 0.04273272 0.014434038
0.023624945 0.012911839 -0.029842366 0.038257126 0.030133743 -0.06353201 -0.05085737 0.0794007
0.04307305 0.07820454 -0.031700023 0.0019092972 0.0700186 0.04414347 0.041383415 0.037103076
0.018978922 -0.10154521 0.123118654 -0.09382711 0.008082348 0.14161134 0.13480262 0.0043356232
0.013161395 0.029332293 -0.05021758 0.1511386 0.06333865 0.06511529 0.12201845 -0.050903603
-0.018297251 0.05241129 -0.09662651 0.0986269 0.05267172 0.03860832 0.11081182 0.049507666
0.035552952 0.09135812 -0.0360525 -0.05357274 -0.098057315 0.12650238 0.0973207 0.084925435
0.14172542 0.18724385 0.14918502 0.14392383 0.10129127 0.13487612 0.13287014 0.052804254
0.04307754 -0.0032306514 -0.0363257 -0.026514508 -0.07666528 0.007418287 0.0868593 0.060442265
-0.2227246 -0.026735608 -0.016060978 0.017449763 0.0059578544 -0.07584757 0.0811891 0.13866572
0.07146635 0.12933482 -0.06428583 0.12028386 0.0201942 -0.0020315289 -0.09658914 0.001260655
-0.09613911 -0.028984627 0.0029575329 0.045641858 -0.087300695 0.06664609 0.030932616 0.05887163
-0.09213765 -0.03968481 0.013975263 0.10515387 -0.09799664 -0.02824521 -0.06715557 0.01015155
0.10989869 0.035766646 0.035800055 -0.03600087 -0.092181295 0.012566298 -0.021837987 -0.04348685
0.08972488 -0.009535097 0.07259709 -0.055341084 0.076207 -0.020213768 -0.091761336 -0.057449732
-0.10372483 -0.066631496 0.06578195 -0.026720688 0.016003504 -0.07096734 0.063145146 0.030181617
-0.040015735 0.039586052 0.049502417 0.05783212 -0.11055101 0.033642635 0.018300906 -0.061664887
-0.11112415 -0.07384307 0.0798876 -0.07403098 -0.07274948 0.09208591 0.019686848 0.04477346
-0.05390371 0.08153814 0.06508514 0.0066118613 -0.09311914 -0.022390649 0.053599864 0.04454848
0.09321062 -0.0034726486 0.10066268 -0.05757603 -0.09938066 -0.055537164 -0.056112774 0.039028287
0.11103952 0.038738936 0.10921767 0.019126847 0.07945722 0.007651247 0.009368442 0.011051342
-0.104897626 -0.099814005 -0.0012437329 -0.08689952 0.09964189 0.0025124997 -0.09262976 0.07057127
-0.11165653 0.060583837 -0.036436625 0.07403909 0.05808691 -0.00075860333 -0.0856026 0.11052351
0.0910483 -0.09672513 0.0052092774 -0.08391558 0.022964958 0.08448621 0.09760963 0.035070553
00000000: eec4 613c 9aaa 27bd e777 d53c c5cb f03c
00000010: 4d1d 303b 2a12 31bd ce5b bd3c 8ae3 433b
00000020: 9940 193d 6f15 9e3d de8d e0bd a007 d9bd
00000030: dca5 063d a22b 843d 9ee3 09bd 8d4e 08bd
00000040: 88f8 bdbd 575e e6bd a547 e73c 22da 9fbc
00000050: 8fd1 b0bd c239 80bc 7e06 36bc 1280 11be
00000060: c072 443d a17d 543d eea0 a7bd 4a8e bd3d
00000070: 26db e43c 1886 283d 1785 5d3d 6680 11bc
00000080: 817f afbd 0655 dfbd f48e 26bd 7eed 38bd
00000090: 2e3a 82bc 7526 bebd e0ad bfbd 7281 7cbb
000000a0: 29ac debd b636 8abd 99c5 71bd ada1 f3bd
000000b0: fd1e 1bbd 7d5f c9bd fa03 90bd c23a 2abb
000000c0: 4a35 7c3d 3b7f 69bd f1a0 9dbd 1939 b8bd
000000d0: 4c95 d7bb 3148 bb3d 9c6b 2bbd efb2 b2bb
000000e0: 99c5 98bd c3a7 7e3d 2674 433c 2317 a1bc
000000f0: db60 82bc a79c bfbc 7181 433d 3d57 0dbb
00000100: cb72 243c bd56 af3d 9179 223c 3060 af3d
00000110: 3ba8 debd 1db5 aa3d 8108 2f3d be7c 6c3c
00000120: 1a89 c13c 2e8c 533c fa77 f4bc 81b3 1c3d
00000130: 0adb f63c 121d 82bd d14f 50bd d69c a23d
00000140: 5e6d 303d b429 a03d e2d7 01bd 6241 fa3a
00000150: e965 8f3d c8cf 343d a881 293d 65f9 173d
00000160: af79 9b3c eff6 cfbd a225 fc3d 6e28 c0bd
00000170: d36b 043c 9002 113e b309 0a3e d811 8e3b
00000180: e4a2 573c 474a f03c f3b0 4dbd 14c4 1a3e
00000190: b2b7 813d 2a5b 853d cfe4 f93d 4c80 50bd
000001a0: 1ee4 95bc 39ad 563d 1fe4 c5bd e6fc c93d
000001b0: 4dbe 573d c223 1e3d 4ff1 e23d 8dc8 4a3d
000001c0: f99f 113d f719 bb3d c9ab 13bd 176f 5bbd
000001d0: 46d2 c8bd d789 013e 1350 c73d 63ed ad3d
000001e0: 7820 113e dabc 3f3e f5c3 183e c560 133e
000001f0: cc71 cf3d f71c 0a3e 1c0f 083e 4649 583d
00000200: 1372 303d 56b9 53bb 42ca 14bd f434 d9bc
00000210: b002 9dbd 1a15 f33b 4ae3 b13d 4f92 773d
00000220: eb11 64be a204 dbbc 5092 83bc cef2 8e3c
00000230: 1b3a c33b f955 9bbd 7946 a63d 63fe 0d3e
00000240: f35c 923d 5970 043e 4aa8 83bd 6257 f63d
00000250: 4f6e a53c 6623 05bb 87d0 c5bd 903c a53a
00000260: 95e4 c4bd 2b71 edbc 2bd3 413b f5f2 3a3d
00000270: b5ca b2bd bf7d 883d 6666 fd3c 6123 713d
00000280: aab2 bcbd 8a8c 22bd 80f8 643c ea5a d73d
00000290: 76b2 c8bd 8062 e7bc dc88 89bd b052 263c
000002a0: 9012 e13d 0c80 123d 14a3 123d a675 13bd
000002b0: 8cc9 bcbd e0e2 4d3c 94e5 b2bc 441f 32bd
000002c0: aec1 b73d 1839 1cbc c8ad 943d 55ad 62bd
000002d0: 6a12 9c3d 5897 a5bc 5eed bbbd 6950 6bbd
000002e0: af6d d4bd 1876 88bd b0b8 863d 58e5 dabc
000002f0: c819 833c 5357 91bd 3e52 813d 703f f73c
00000300: 8ae7 23bd fc24 223d 0cc3 4a3d 60e1 6c3d
00000310: 9168 e2bd dccc 093d c8eb 953c 5294 7cbd
00000320: 0f95 e3bd 093b 97bd 1c9c a33d 8e9d 97bd
00000330: aefd 94bd 8a97 bc3d 5046 a13c 6064 373d
00000340: 23ca 5cbd 78fd a63d 5c4b 853d 50a8 d83b
00000350: 3fb5 bebd 986c b7bc 888b 5b3d 7878 363d
00000360: 36e5 be3d 6095 63bb 3c28 ce3d d8d4 6bbd
00000370: 1688 cbbd f07a 63bd 82d6 65bd 20dc 1f3d
00000380: b068 e33d b8ac 1e3d 84ad df3d e8af 9c3c
00000390: 78ba a23d 50b7 fa3b 187e 193c b010 353c
000003a0: 91d4 d6bd 496b ccbd c004 a3ba 60f8 b1bd
000003b0: 0c11 cc3d c0a8 243b acb4 bdbd ac87 903d
000003c0: 2eac e4bd c226 783d 923e 15bd cea1 973d
000003d0: 8aec 6d3d 02dd 46ba 6a50 afbd 265a e23d
000003e0: 8877 ba3d d317 c6bd 96b2 aa3b eedb abbd
000003f0: 0221 bc3c 1b07 ad3d 8fe7 c73d 24a6 0f3d

bias f4 [20]
0.005512326 -0.0742495 -0.019060299 -0.018545862 -0.004098766 0.030755056 0.04490606 -0.013614603
0.022203224 -0.053689707 -0.073131196 0.09133724 -0.054411575 0.07435727 -0.049558964 -0.06336934
0.04067758 -0.011677589 -0.016284157 -0.100299716
00000000: bea0 b43b 1f10 98bd 5824 9cbc 7eed 97bc
00000010: f14e 86bb 07f2 fb3c 6bef 373d c90f 5fbc
00000020: 89e3 b53c bde9 5bbd cfc5 95bd 050f bb3d
00000030: acde 5ebd a048 983d 57fe 4abd c9c7 81bd
00000040: 899d 263d 5c53 3fbc 5a66 85bc f069 cdbd

weight f4 [40, 40]
0.09693648 0.12240608 0.13194513 0.039680526 0.06627768 -0.14538312 -0.078989 -0.03232315
0.12069349 -0.059092667 -0.04262095 0.059283316 0.09028266 0.1394818 -0.16025221 0.08957838
0.105994865 -0.08016647 -0.16956091 -0.127782 -0.01695428 -0.13311173 0.06522074 -0.16303359
-0.13410333 -0.053465627 0.024859218 -0.09601942 -0.069344684 -0.0958299 -0.108230665 0.053388838
-0.014895585 -0.12271032 -0.16559216 0.025483394 0.1569636 0.118006624 -0.0985866 0.018939435
-0.07873096 0.05362308 -0.01668991 0.0021639653 -0.14399616 0.06578834 0.037303403 0.07983091
-0.022458808 0.057939235 -0.10017569 0.009762168 -0.14938381 0.021368384 -0.051952727 -0.08941723
0.023302494 0.13729395 0.09345367 -0.011554021 0.029765502 -0.09417297 0.12012194 -0.11520582
0.06962523 0.08317064 -0.08722786 -0.02068949 -0.109068856 0.14117071 -0.0049932897 -0.06913366
0.07321375 -0.0611825 0.035102297 -0.057072867 0.08970636 0.13333581 -0.0028247663 0.1300527
-0.12524283 0.047009025 0.06820254 -0.106932506 0.011228798 0.018596543 -0.14874628 0.15221894
0.14497459 -0.028637461 0.030815661 -0.14918229 -0.080413036 -0.06379787 0.13287346 0.079202846
-0.1184504 0.06007967 0.0875933 -0.16852921 -0.04452677 0.04356276 -0.010473177 -0.02375128
-0.01297077 0.15500036 0.0134502305 -0.15292837 0.056726933 0.09286602 0.03737028 0.06002932
-0.11871368 0.0008277524 0.031958334 0.14262047 -0.060796436 0.18204382 -0.15826067 0.044291466
0.09651339 0.074787214 0.027111026 0.00088948716 0.13499424 0.12127161 -0.18519275 -0.015032419
-0.043702327 -0.119649395 0.017940665 -0.08668365 -0.05201843 0.16834594 0.006736088 0.13430133
-0.107487775 0.09998098 0.056208894 -0.10736784 -0.093866944 0.026455851 0.050206304 0.0740575
-0.010844861 0.0070736194 0.15414435 -0.056521356 -0.0714141 -0.10270788 0.03376861 -0.13556641
-0.083206244 0.0076932404 -0.042597253 -0.08031449 0.11315385 -0.008398356 -0.046026275 -0.095177546
-0.09530054 0.0019887239 -0.15059377 -0.015471131 -0.02830131 0.055815417 -0.10712283 0.10599845
0.04339938 -0.057981208 -0.13449508 0.15688862 -0.1552806 -0.03566938 0.04531404 0.081160694
-0.027678475 -0.078993626 -0.036389805 -0.07728805 0.15244338 -0.06803687 0.111588016 -0.14796716
0.0008533763 0.018362537 0.10909682 0.090232514 -0.11982391 -0.11965947 -0.09473302 -0.11489621
-0.06909591 -0.09391783 -0.18205082 0.04963013 -0.11427684 0.016072435 -0.11292604 0.012791768
-0.08877173 -0.07317004 -0.10446054 0.063174576 0.07908177 -0.1615873 -0.00085273874 0.14475973
0.11193353 0.13311428 -0.077801 0.15688442 -0.13548967 0.025021479 0.03331117 -0.06812882
0.017314717 0.09100583 -0.14033785 -0.05377848 -0.15854934 -0.095995955 -0.10985868 -0.15494835
0.08011427 0.034572087 -0.07114407 0.0861546 0.035253845 0.14998893 -0.066442035 -0.029253421
-0.009173756 -0.1463073 -0.12262297 -0.004036262 0.14327414 -0.009090359 0.043289434 0.08801071
-0.13369459 0.14994988 0.06966175 0.09949212 -0.17482942 -0.10967263 0.0027924795 0.0061100037
0.0900075 0.017082602 0.101465225 -0.015806079 -0.10813619 -0.05261858 -0.020354433 -0.005478194
00000000: a286 c63d 0ab0 fa3d a01c 073e 0c88 223d
00000010: 98bc 873d 50df 14be fcc4 a1bd 4865 04bd
00000020: 262e f73d 270b 72bd 4e93 2ebd 10d3 723d
00000030: 1ee6 b83d 51d4 0e3e 2819 24be df74 b73d
00000040: d613 d93d 512e a4bd 60a1 2dbe 49d9 02be
00000050: b4e3 8abc 714e 08be 7492 853d 47f2 26be
00000060: 6252 09be c6fe 5abd 8fa5 cb3c d4a5 c4bd
00000070: 9604 8ebd 7742 c4bd 0aa8 ddbd 41ae 5a3d
00000080: 9d0c 74bc 8c4f fbbd fe90 29be 8dc2 d03c
00000090: 11bb 203e 75ad f13d c5e7 c9bd e026 9b3c
000000a0: b33d a1bd e0a3 5b3d 47b9 88bc 50d1 0d3b
000000b0: bb73 13be 0abc 863d 74cb 183d 637e a33d
000000c0: 89fb b7bc b151 6d3d ea28 cdbd 80f1 1f3c
000000d0: 12f8 18be c00c af3c 62cc 54bd 6120 b7bd
000000e0: dfe4 be3c c996 0c3e a364 bf3d 144d 3dbc
000000f0: c8d6 f33c c2dd c0bd 7e02 f63d 07f1 ebbd
00000100: ac97 8e3d 5e55 aa3d 85a4 b2bd 017d a9bc
00000110: 7e5f dfbd 0e8f 103e c09e a3bb f395 8dbd
00000120: 17f1 953d 809a 7abd 6dc7 0f3d 3dc5 69bd
00000130: f8b7 b73d 2f89 083e b71f 39bb 892c 053e
00000140: a83f 00be 898c 403d c6ad 8b3d 6eff dabd
00000150: fef8 373c c757 983c f250 18be 48df 1b3e
00000160: 3874 143e 1c99 eabc 2071 fc3c 3ec3 18be
00000170: 97af a4bd 75a8 82bd fb0f 083e 1a35 a23d
00000180: 2096 f2bd 1a16 763d 1e64 b33d ec92 2cbe
00000190: b461 36bd dd6e 323d b097 2bbc 0b92 c2bc
000001a0: 5a83 54bc 6ab8 1e3e 5b5e 5c3c 4199 1cbe
000001b0: 805a 683d 8a30 be3d 9411 193d 4ee1 753d
000001c0: 2820 f3bd 86fd 583a bee6 023d 1a0b 123e
000001d0: af05 79bd b269 3a3e 160f 22be f86a 353d
000001e0: d0a8 c53d 0a2a 993d f117 de3c 792c 693a
000001f0: ee3b 0a3e 405d f83d 2ba3 3dbe 894a 76bc
00000200: 3601 33bd be0a f5bd 4df8 923c 3387 b1bd
00000210: 4711 55bd e162 2c3e 67ba dc3b 4a86 093e
00000220: 8d22 dcbd d4c2 cc3d 4c3b 663d ace3 dbbd
00000230: 503d c0bd f1b9 d83c 20a5 4d3d 75ab 973d
00000240: a5ae 31bc d2c9 e73b 04d8 1d3e f082 67bd
00000250: 8e41 92bd 8258 d2bd f450 0a3d ecd1 0abe
00000260: 0968 aabd 9417 fc3b 757a 2ebd ec7b a4bd
00000270: 35bd e73d 4299 09bc 0c86 3cbd 72ec c2bd
00000280: ee2c c3bd 4055 023b 4135 1abe a07a 7dbc
00000290: 26d8 e7bc b59e 643d 3763 dbbd b715 d93d
000002a0: 8cc3 313d b47d 6dbd 14b9 09be 69a7 203e
000002b0: e101 1fbe 0e1a 12bd 379b 393d 9437 a63d
000002c0: f8bd e2bc 69c7 a1bd 7a0d 15bd 3249 9ebd
000002d0: 1e1a 1c3e ea56 8bbd 4288 e43d b484 17be
000002e0: 1db5 5f3a 086d 963c 276e df3d d3cb b83d
000002f0: 3d66 f5bd 0610 f5bd 6303 c2bd b44e ebbd
00000300: 2882 8dbd fe57 c0bd 886b 3abe f748 4b3d
00000310: fa09 eabd 57aa 833c c545 e7bd 9094 513c
00000320: f4cd b5bd 2dda 95bd 68ef d5bd ac61 813d
00000330: 9ff5 a13d 2477 25be 548a 5fba e53b 143e
00000340: 683d e53d 1c4f 083e 2156 9fbd 4fa6 203e
00000350: cebd 0abe d8f9 cc3c 4b71 083d 1f87 8bbd
00000360: 98d7 8d3c 4461 ba3d bab4 0fbe d346 5cbd
00000370: c25a 22be 8799 c4bd 96fd e0bd c8aa 1ebe
00000380: f312 a43d 769b 0d3d fbb3 91bd d371 b03d
00000390: 5666 103d b396 193e c312 88bd dfa4 efbc
000003a0: 864d 16bc 95d1 15be c021 fbbd 9f42 84bb
000003b0: 75b6 123e bbef 14bc 4350 313d f63e b43d
000003c0: 3ce7 08be 768c 193e d2aa 8e3d 86c2 cb3d
000003d0: 7c06 33be 0b9c e0bd 0802 373b 6d36 c83b
000003e0: da55 b83d d0f0 8b3c 00cd cf3d c07b 81bc
000003f0: 8276 ddbd 9586 57bd 57be a6bc 6c82 b3bb

bias f4 [40]
-0.116948254 0.12795255 0.0068883803 -0.021790445 -0.08969057 -0.028305648 0.076014034 -0.20405559
-0.15141252 0.08086378 0.08793045 -0.07326686 -0.06273162 -0.13672064 0.101394564 0.030612178
0.053058844 0.09150032 0.15085334 -0.15974617 -0.02011154 0.031609327 0.07966054 -0.18908726
0.05795385 0.002981419 -0.0005324382 0.0188802 0.029681904 0.060174145 -0.02474649 0.1203252
0.01728322 0.00306304 -0.059028853 0.06671487 -0.19435029 -0.08924199 0.0047430648 0.16338058
00000000: 9182 efbd fe05 033e ecb7 e13b e081 b2bc
00000010: b1af b7bd 3fe1 e7bc 3fad 9b3d f3f3 50be
00000020: e20b 1bbe e99b a53d e114 b43d ef0c 96bd
00000030: 7079 80bd 7f00 0cbe f4a7 cf3d 64c6 fa3c
00000040: 3b54 593d 8564 bb3d 4c79 1a3e 8094 23be
00000050: f5c0 a4bc c878 013d 1125 a33d 17a0 41be
00000060: 0461 6d3d e963 433b 5393 0bba a6aa 9a3c
00000070: 7727 f33c 2a79 763d 27b9 cabc 0f6d f63d
00000080: 8a95 8d3c 49bd 483b 3dc8 71bd cea1 883d
00000090: c303 47be 81c4 b6bd b66b 9b3b 3d4d 273e

weight f4 [64, 40]
0.15615317 0.007731275 0.039498474 0.119536914 0.078730986 -0.03431763 -0.091747396 0.052679196
-0.023882188 0.011039164 -0.09043901 -0.038683034 0.20011555 0.013535616 0.10445126 0.14495936
-0.074351326 -0.084904015 0.07737685 -0.07860901 0.1404798 0.046627373 0.033763655 -0.07447247
-0.13499932 -0.093202665 -0.09007768 0.090298235 0.12149999 0.044922624 0.040592734 0.0037394783
0.13396296 0.09759551 0.224087 0.05037233 0.121896364 0.2151314 0.13551556 -0.027073456
-0.08389497 -0.13696545 0.030588143 0.016642408 -0.1031183 -0.14181589 -0.1317305 0.010307514
-0.00903921 -0.15385139 -0.043937445 -0.11265984 -0.116000764 0.018120842 0.14717074 -0.14517853
0.057111416 -0.119980566 -0.15715772 0.12320457 -0.052441377 -0.13957532 0.077922195 0.038091857
0.03188001 0.009194888 -0.10377619 -0.042339258 0.057586055 -0.0012857971 0.018125076 -0.041004166
0.060290206 -0.030864803 0.13773796 0.09759703 -0.020222384 0.12802811 0.048422344 0.006031195
0.007548357 -0.067245856 -0.017820504 0.039781034 -0.08085516 -0.08348922 0.023183838 0.03555578
0.01180879 -0.014790884 0.079345815 -0.10038402 -0.15042396 0.0853219 -0.14235413 0.07288129
-0.06327742 -0.21556766 -0.053461317 0.07241123 0.14794494 0.09680458 0.03640178 -0.0656507
-0.02739021 0.1311771 0.0768809 -0.1697481 0.09637184 -0.08917236 0.08176228 -0.007918168
0.041703247 -0.037744354 -0.0003883223 0.10570102 0.055715036 -0.11909336 -0.10791784 -0.09470246
0.023995984 0.021311883 0.14824146 -0.14337875 -0.149345 0.08182066 0.00029256474 -0.13953397
0.038422957 -0.035914134 0.022843486 -0.10547848 -0.11749654 -0.003420169 0.09364393 0.0023583493
-0.06003296 -0.121834956 0.0048839264 0.10862137 0.020370675 0.031285524 -0.02694864 0.0023693983
-0.18041296 -0.027024642 -0.0075279125 -0.04632527 -0.14707763 0.068684325 0.16019996 -0.112871006
-0.12755652 0.05351551 0.14256561 0.002783379 0.11132713 -0.072645135 -0.06611454 0.013688374
0.053917345 0.0009631869 0.089336716 0.036271863 -0.096818514 -0.09141873 -0.023158615 0.033915177
-0.124354124 0.12368716 0.040163815 -0.0013824919 0.09529307 0.04494377 0.1226495 -0.113184236
0.10155187 -0.11774981 -0.060521003 -0.036923517 -0.0798593 -0.02778115 -0.12021783 0.040171385
-0.19528896 0.023786502 -0.0068715825 -0.1661031 0.03141776 0.20271656 -0.13495274 -0.014945463
-0.053459626 0.05290393 -0.0065341666 -0.19252081 0.043670665 -0.1561711 0.10657326 0.067898236
-0.17952716 -0.09477047 -0.14960033 -0.07289053 -0.17886241 -0.05303146 -0.07376567 -0.10224905
-0.069561936 0.0130283125 -0.053838436 0.03860963 0.11910185 0.089350924 -0.13182954 -0.10530202
-0.072944 0.12783366 -0.018355893 0.049313657 0.066616006 -0.063770905 -0.027641201 -0.16169918
-0.045320038 -0.1018589 0.025700679 -0.041160874 0.035317205 0.12241967 0.017286072 -0.15878421
-0.0176138 0.04193888 0.07812862 0.052322708 0.0071557495 0.073478505 -0.1000328 0.02227678
0.1364375 -0.15036298 0.11134988 0.043668065 0.014644314 0.09759877 0.109138295 0.15127328
0.03483177 -0.023795107 -0.046240337 -0.1534415 -0.12603536 0.13695708 -0.18499765 -0.18271616
00000000: 9ee6 1f3e a356 fd3b 27c9 213d c5cf f43d
00000010: b63d a13d a590 0cbd 0fe6 bbbd 24c6 573d
00000020: 94a4 c3bc 9cdd 343c 1638 b9bd 1a72 1ebd
00000030: 17eb 4c3e 7dc4 5d3c 8bea d53d 3a70 143e
00000040: 8245 98bd 28e2 adbd c177 9e3d c3fd a0bd
00000050: f0d9 0f3e 58fc 3e3d c24b 0a3d 0685 98bd
00000060: 433d 0abe 0ae1 bebd a67a b8bd 48ee b83d
00000070: fdd4 f83d c900 383d 9144 263d 0912 753b
00000080: 962d 093e 28e0 c73d 1077 653e 3753 4e3d
00000090: cda4 f93d 684b 5c3e 97c4 0a3e 27c9 ddbc
000000a0: 20d1 abbd ac40 0cbe fc93 fa3c a955 883c
000000b0: b02f d3bd 2f38 11be 5ce4 06be d9e0 283c
000000c0: 3219 14bc 388b 1dbe c0f7 33bd 34ba e6bd
000000d0: cf91 edbd 2972 943c edb3 163e aea9 14be
000000e0: a9ed 693d 5fb8 f5bd f4ed 20be ad52 fc3d
000000f0: c5cc 56bd d5ec 0ebe ac95 9f3d 3506 1c3d
00000100: 9d94 023d 28a6 163c 9c88 d4bd ee6b 2dbd
00000110: 5bdf 6b3d 3188 a8ba 0a7b 943c fcf3 27bd
00000120: ddf2 763d 2fd8 fcbc 2e0b 0d3e f4e0 c73d
00000130: 6aa9 a5bc cd19 033e 8256 463d 55a1 c53b
00000140: 3558 f73b 32b8 89bd 4efc 91bc 70f1 223d
00000150: 6497 a5bd 65fc aabd 08ec bd3c f0a2 113d
00000160: a879 413c 7755 72bc 0f80 a23d 2396 cdbd
00000170: bd08 1abe 40bd ae3d 48c5 11be c942 953d
00000180: 9897 81bd c5bd 5cbe 41fa 5abd 574c 943d
00000190: e17e 173e 7b41 c63d 081a 153d e073 86bd
000001a0: 6f61 e0bc 4a53 063e bc73 9d3d 72d2 2dbe
000001b0: 995e c53d 00a0 b6bd fb72 a73d 34bb 01bc
000001c0: 06d1 2a3d d399 1abd bd97 cbb9 c779 d83d
000001d0: 7335 643d 38e7 f3bd 0704 ddbd 5df3 c1bd
000001e0: 3a93 c43c 4296 ae3c 9ccc 173e e1d1 12be
000001f0: e5ed 18be 9791 a73d 6063 9939 fee1 0ebe
00000200: 6461 1d3d b31a 13bd 4322 bb3c 1a05 d8bd
00000210: 07a2 f0bd ea24 60bb 64c8 bf3d 898e 1a3b
00000220: 1fe5 75bd 9b84 f9bd 5809 a03b e174 de3d
00000230: 67e0 a63c 4025 003d 65c3 dcbc e847 1b3b
00000240: 2dbe 38be c862 ddbc b5ac f6bb 91bf 3dbd
00000250: 859b 16be 5eaa 8c3d 750b 243e ea28 e7bd
00000260: 2d9e 02be 1433 5b3d b8fc 113e 5a69 363b
00000270: 7aff e33d f9c6 94bd 0f67 87bd 3445 603c
00000280: 6fd8 5c3d 617e 7c3a 2bf6 b63d ce91 143d
00000290: c948 c6bd be39 bbbd 23b7 bdbc a4ea 0a3d
000002a0: 60ad febd b24f fd3d d082 243d bb34 b5ba
000002b0: 0329 c33d f516 383d a92f fb3d 23cd e7bd
000002c0: 6dfa cf3d d026 f1bd dfe4 77bd 1d3d 17bd
000002d0: 468d a3bd 4b95 e3bc c434 f6bd c08a 243d
000002e0: d4f9 47be e9db c23c 032b e1bb ee16 2abe
000002f0: e9af 003d ee94 4f3e 0d31 0abe d1dd 74bc
00000300: 7bf8 5abd cbb1 583d 901c d6bb 2d24 45be
00000310: 03e0 323d 51eb 1fbe 1543 da3d 3b0e 8b3d
00000320: f8d5 37be 0517 c2bd d430 19be a147 95bd
00000330: b527 37be 8437 59bd 7512 97bd f367 d1bd
00000340: 7d76 8ebd b474 553c b185 5cbd 2225 1e3d
00000350: aceb f33d 9efd b63d 53fe 06be 96a8 d7bd
00000360: aa63 95bd d4e6 023e 195f 96bc 1efd 493d
00000370: f96d 883d 529a 82bd cd6f e2bc 7894 25be
00000380: 81a1 39bd 669b d0bd 3b8a d23c 4e98 28bd
00000390: c6a8 103d 2ab7 fa3d 859b 8d3c 5498 22be
000003a0: d14a 90bc 1ac8 2b3d e601 a03d 5650 563d
000003b0: c77a ea3b e67b 963d ffdd ccbd cb7d b63c
000003c0: 46b6 0b3e c1f8 19be 680b e43d 49dd 323d
000003d0: b4ee 6f3c dde1 c73d e683 df3d 62e7 1a3e
000003e0: c2ab 0e3d f5ed c2bc 8266 3dbd c51f 1dbe
000003f0: 6a0f 01be 7a3e 0c3e 0670 3dbe f219 3bbe

bias f4 [64]
-0.018568832 0.04263617 0.13055237 -0.15158755 0.0939448 0.015585326 -0.1137222 -0.054786492
0.053995285 -0.0024117087 0.12189169 -0.1344344 -0.05279167 -0.052551195 0.015853886 -0.04241931
-0.04194444 -0.15819608 0.15311652 0.03530639 0.07812053 -0.17671669 0.09455964 -0.08583142
0.034741074 0.01765504 0.094563074 -0.115076095 0.014040327 0.19635369 -0.091704816 0.060840085
0.020416543 0.052658748 0.037353665 -0.101490505 0.031139623 0.018129572 -0.17445609 -0.13474986
-0.09477204 -0.057600822 0.029313967 -0.0074619926 0.0046555204 0.11848348 -0.11509137 -0.13723609
-0.13995141 0.02256966 -0.07510071 0.0064221313 -0.07800095 0.16617902 -0.0625912 0.09312415
0.06045728 0.12047491 -0.06637973 0.11782759 0.1039335 -0.13797434 -0.09912232 0.03488318
00000000: aa1d 98bc 44a3 2e3d 85af 053e c439 1bbe
00000010: 2266 c03d 9859 7f3c 2fe7 e8bd cd67 60bd
00000020: 292a 5d3d c20d 1ebb 5aa2 f93d 2ca9 09be
00000030: 143c 58bd ec3f 57bd 02e0 813c dfbf 2dbd
00000040: efcd 2bbd 27fe 21be 94ca 1c3e 6f9d 103d
00000050: a8fd 9f3d 38f5 34be 7ca8 c13d 62c8 afbd
00000060: a84c 0e3d 4da1 903c 49aa c13d 04ad ebbd
00000070: 6609 663c f110 493e bccf bbbd 7433 793d
00000080: 9840 a73c b3b0 573d 2800 193d 41da cfbd
00000090: 8618 ff3c 7884 943c 9ea4 32be defb 09be
000000a0: d817 c2bd d7ee 6bbd d823 f03c bb83 f4bb
000000b0: 568d 983b 77a7 f23d 06b5 ebbd 9e87 0cbe
000000c0: 6c4f 0fbe 02e4 b83c 67ce 99bd be70 d23b
000000d0: f6be 9fbd d52a 2a3e d12f 80bd e0b7 be3d
000000e0: 0ea2 773d 8dbb f63d 19f2 87bd 974f f13d
000000f0: 16db d43d 2549 0dbe a500 cbbd aae1 0e3d

weight f4 [64, 80]
-0.058774907 0.06424911 0.012771915 0.072582416 0.11156034 -0.031994827 -0.06665897 0.015633918
-0.021918694 -0.06052505 0.10551278 0.0522075 0.09788133 0.13778475 0.023418032 -0.1366721
0.005200049 0.07939962 -0.10659714 -0.07264156 -0.041163728 -0.050591923 0.22726361 0.020524684
0.0011172172 0.022785094 0.27676445 -0.12941615 0.05872768 0.08782412 -0.037136324 -0.0785624
0.018592834 0.12006692 -0.012245735 -0.08527009 -0.023354763 0.09461667 -0.07858431 -0.08424086
-0.08770455 -0.017747654 0.04915608 -0.0183542 0.12817897 0.013948361 0.02377917 0.02848268
0.04068185 -0.06511257 -0.0196808 0.015156593 0.057198867 0.22807246 -0.11198653 0.051786523
-0.035585873 0.23205915 -0.06165993 0.072707504 -0.09871236 -0.10783646 -0.033061683 0.06844832
-0.013367907 0.019424642 -0.13498199 0.06118503 -0.10359475 -0.055907484 -0.02507894 -0.05904069
-0.024135455 -0.062608466 -0.07343432 -0.0072948975 0.055267353 0.030321263 0.18479218 0.0480783
0.024772778 0.040907517 -0.03173262 -0.043203935 -0.017108224 -0.09408444 0.0033726096 -0.032064073
-0.0027212426 -0.02583304 -0.040739253 0.024806023 0.10472089 -0.05310447 0.016989723 -0.034892596
-0.024257004 0.008764684 -0.10686097 0.04171446 -0.035132833 -0.079493746 0.095876545 -0.025634684
-0.043496765 -0.0053422004 -0.07854441 0.0062236413 0.0067091286 0.068939745 -0.10034122 0.11003411
0.09515479 0.110618025 -0.08093898 -0.087434605 -0.025490686 -0.10524161 -0.04388708 -0.07872681
-0.043215998 0.097368225 -0.06976849 0.06114304 -0.1075858 0.07512413 -0.012209013 0.06089191
-0.0027196854 -0.05310166 0.026896372 -0.016751125 -0.07768671 0.06764606 -0.060258556 0.052003548
-0.025319211 0.093675986 0.0048315376 -0.08254087 -0.065372206 -0.10750001 0.100314975 -0.025613412
0.09368491 0.09056187 -0.086300224 0.022316322 -0.09098968 -0.0015187263 -0.10918507 0.055254146
0.046526298 -0.102817126 0.007457927 0.00068464875 -0.047223687 -0.08874161 0.013154551 0.054806724
-0.1230183 -0.113495514 -0.09637209 -0.11507927 0.024852408 -0.03614525 0.106151685 -0.0122897355
0.12226603 -0.17950664 -0.061167616 0.047694046 -0.13327059 0.18224242 0.04449254 0.054719616
-3.5096076e-05 -0.063150674 0.04666857 -0.07156839 -0.11609256 0.094279304 0.2128374 0.065720655
-0.049928978 0.0012349326 0.04408405 0.059701655 -0.2044921 0.16244617 -0.15610422 -0.2962014
-0.06207379 -0.031176005 0.068019725 -0.096071206 -0.10568239 0.007781441 -0.03654189 -0.054173045
-0.06193345 -0.15829834 -0.07892622 -0.13390441 0.080573656 0.022878898 -0.047888525 0.01652161
-0.019251866 0.024059415 0.08426792 0.02011486 0.016757496 -0.036748268 -0.11376503 -0.15979607
0.0669578 0.19024254 0.0012241636 0.010371343 -0.05760945 0.061403606 0.09194128 -0.15270914
-0.13049859 -0.18357384 -0.17766246 -0.041167993 0.05100764 0.13702127 0.033920504 0.10614
-0.0050589144 0.08182989 0.010770638 0.010094227 -0.044429403 -0.09242647 0.12542975 0.050606273
0.14212736 -0.071417205 0.06071788 -0.08814224 -0.12886393 -0.09873039 -0.17923774 0.019151522
0.07172911 0.007196337 0.025365354 0.025692029 0.037023947 -0.06934648 0.020401627 -0.11255164
00000000: f5bd 70bd 0a95 833d 4b41 513c 17a6 943d
00000010: bf79 e43d 020d 03bd 8084 88bd b412 803c
00000020: d58e b3bc 1de9 77bd 1617 d83d 88d7 553d
00000030: 0276 c83d 7217 0d3e 2cd7 bf3c c5f3 0bbe
00000040: 2c65 aa3b 459c a23d 9a4f dabd 19c5 94bd
00000050: 4c9b 28bd 7a39 4fbd cbb7 683e 6223 a83c
00000060: 976f 923a cea7 ba3c 12b4 8d3e ab85 04be
00000070: 708c 703d 22dd b33d 421c 18bd 53e5 a0bd
00000080: 0050 983c a5e5 f53d 56a2 48bc 16a2 aebd
00000090: 7d52 bfbc 62c6 c13d d0f0 a0bd 7986 acbd
000000a0: 719e b3bd 8763 91bc e357 493d 8c5b 96bc
000000b0: 5941 033e ab87 643c 89cc c23c 8254 e93c
000000c0: 03a2 263d bd59 85bd a139 a1bc 5c53 783c
000000d0: 5c49 6a3d d48b 693e 3259 e5bd 1b1e 543d
000000e0: 7ec2 11bd eaa0 6d3e 1f8f 7cbd ace7 943d
000000f0: b529 cabd 5dd9 dcbd b06b 07bd a22e 8c3d
00000100: 1105 5bbc 6d20 9f3c b838 0abe 279d 7a3d
00000110: 7c29 d4bd 3fff 64bd 5972 cdbc a7d4 71bd
00000120: b8b7 c5bc de38 80bd bc64 96bd 090a efbb
00000130: 0560 623d 4c64 f83c 293a 3d3e c0ed 443d
00000140: 48f0 ca3c a48e 273d 10fa 01bd 9cf6 30bd
00000150: 8c26 8cbc 58af c0bd 0007 5d3b 9e55 03bd
00000160: e056 32bb d09f d3bc 34de 26bd 0036 cb3c
00000170: e877 d63d 1384 59bd 082e 8b3c 8aeb 0ebd
00000180: a0b6 c6bc c099 0f3c edd9 dabd c8dc 2a3d
00000190: 72e7 0fbd 9ecd a2bd ec5a c43d d4ff d1bc
000001a0: aa29 32bd a00d afbb e4db a0bd b0ef cb3b
000001b0: 40d8 db3b 4830 8d3d b37f cdbd 9059 e13d
000001c0: 84e0 c23d b48b e23d 56c3 a5bd ea10 b3bd
000001d0: d8d1 d0bc ea88 d7bd f0c2 33bd 863b a1bd
000001e0: 4203 31bd fe68 c73d c8e2 8ebd 2071 7a3d
000001f0: f255 dcbd aeda 993d 5008 48bc cc69 793d
00000200: c03c 32bb 2081 59bd c855 dc3c a839 89bc
00000210: 361a 9fbd 048a 8a3d add1 76bd ac01 553d
00000220: 3c6a cfbc 32d9 bf3d e051 9e3b 300b a9bd
00000230: dde1 85bd f728 dcbd f071 cd3d 38d3 d1bc
00000240: e0dd bf3d 8078 b93d 2cbe b0bd b8d0 b63c
00000250: cc58 babd 0010 c7ba 6c9c dfbd 2c52 623d
00000260: 5c92 3e3d c991 d2bd a061 f43b 007a 333a
00000270: a06d 41bd 29be b5bd 3086 573c 047d 603d
00000280: 05f1 fbbd 5670 e8bd bb5e c5bd aeae ebbd
00000290: 4797 cb3c 0b0d 14bd 0e66 d93d e35a 49bc
000002a0: 9d66 fa3d 97d0 37be e58a 7abd d55a 433d
000002b0: 1678 08be c29d 3a3e cf3d 363d ad21 603d
000002c0: 2034 13b8 2455 81bd 8b27 3f3d 7392 92bd
000002d0: f0c1 edbd 8215 c13d 0cf2 593e 8d98 863d
000002e0: 5482 4cbd 76dd a13a 7a91 343d b989 743d
000002f0: 6166 51be 4a58 263e c9d9 1fbe b6a7 97be
00000300: 1641 7ebd d264 ffbc ed4d 8b3d fbc0 c4bd
00000310: 0270 d8bd 75fb fe3b f3ac 15bd 8ee4 5dbd
00000320: eead 7dbd f618 22be 12a4 a1bd 3d1e 09be
00000330: cd03 a53d 876c bb3c c226 44bd 5458 873c
00000340: 17b6 9dbc 4018 c53c a994 ac3d ebc7 a43c
00000350: 0447 893c 5a85 16bd a4fd e8bd 95a1 23be
00000360: 2c21 893d f1ce 423e 1d74 a03a 91ec 293c
00000370: e3f7 6bbd 5982 7b3d b64b bc3d c95f 1cbe
00000380: 6ca1 05be c8fa 3bbe 26ed 35be c59f 28bd
00000390: 63ed 503d 4e4f 0c3e 3af0 0a3d ee5f d93d
000003a0: 40c5 a5bb 6e96 a73d 5477 303c 4262 253c
000003b0: 9bfb 35bd 174a bdbd a870 003e 8648 4f3d
000003c0: d689 113e 2f43 92bd 50b3 783d eb83 b4bd
000003d0: e8f4 03be 2933 cabd 198a 37be a7e3 9c3c
000003e0: b6e6 923d 40cf eb3b 01cb cf3c 1778 d23c
000003f0: 6ca6 173d 8705 8ebd 5021 a73c 7981 e6bd

bias f4 [64]
-0.019944087 -0.020613693 0.06525801 -0.03992514 -0.16807593 0.04859867 -0.074721545 0.085318446
0.022257267 0.07544746 -0.018131008 -0.077492654 -0.09528566 0.010780197 0.006852758 0.0038244599
-0.16825424 0.031200923 0.09427601 0.03892548 -0.05452171 0.030968733 -0.06300414 -0.1080647
-0.06711027 -0.0029466539 -0.07979048 -0.058103986 0.032789037 -0.12078273 0.06947444 -0.11074519
0.07584398 -0.05078657 -0.030398412 0.095052674 -0.052627686 -0.11187387 -0.1154926 -0.091008574
0.018114517 -0.09643602 -0.07258143 0.0010937282 -0.06229313 -0.0024170657 -0.16646329 -0.100219026
-0.044743277 0.004488709 -0.097466685 0.07626321 -0.0060584694 0.060072973 -0.08650879 0.0033211163
0.03166348 -0.045427836 -0.007217422 0.035056204 0.044969823 0.058652032 -0.04438444 0.06980361
00000000: c861 a3bc 0cde a8bc fea5 853d 8b88 23bd
00000010: 191c 2cbe 660f 473d 9c07 99bd 70bb ae3d
00000020: df54 b63c 3384 9a3d 7b87 94bc 78b4 9ebd
00000030: 2125 c3bd 6c9f 303c 1a8d e03b caa3 7a3b
00000040: d74a 2cbe 1499 ff3c c813 c13d 5370 1f3d
00000050: 2852 5fbd 24b2 fd3c 5108 81bd 0751 ddbd
00000060: 1c71 89bd a61c 41bb 3169 a3bd 72fe 6dbd
00000070: cc4d 063d f05c f7bd 9d48 8e3d 60ce e2bd
00000080: 1754 9b3d 9405 50bd 1706 f9bc faaa c23d
00000090: 2190 57bd 211e e5bd 6287 ecbd b462 babd
000000a0: e564 943c 4080 c5bd 93a5 94bd 6e5b 8f3a
000000b0: 1527 7fbd a267 1ebb 5a75 2abe a23f cdbd
000000c0: ba44 37bd 0516 933b 9d9c c7bd e32f 9c3d
000000d0: 2086 c6bb 140f 763d 852b b1bd 16a7 593b
000000e0: 91b1 013d 8a12 3abd 2080 ecbb 1897 0f3d
000000f0: 4732 383d 1d3d 703d 75cc 35bd 32f5 8e3d
